…
 bidirectional_737 (Bidirection  (None, None, 10)    280         ['masking_737[0][0]']            
 al)                                                                                              
                                                                                                  
 bidirectional_738 (Bidirection  (None, None, 10)    280         ['masking_738[0][0]']            
 al)                                                                                              
                                                                                                  
 conv1d_368 (Conv1D)            (None, 24, 5)        65          ['masking_739[0][0]']            
                                                                                                  
 lstm_1289 (LSTM)               (None, 5)            320         ['bidirectional_736[0][0]']      
                                                                                                  
 lstm_1291 (LSTM)               (None, 5)            320         ['bidirectional_737[0][0]']      
                                                                                                  
 lstm_1293 (LSTM)               (None, 5)            320         ['bidirectional_738[0][0]']      
                                                                                                  
 conv1d_369 (Conv1D)            (None, 24, 5)        105         ['conv1d_368[0][0]']             
                                                                                                  
 dense_736 (Dense)              (None, 64)           384         ['lstm_1289[0][0]']              
                                                                                                  
 dense_737 (Dense)              (None, 64)           384         ['lstm_1291[0][0]']              
                                                                                                  
 dense_738 (Dense)              (None, 64)           384         ['lstm_1293[0][0]']              
                                                                                                  
 bidirectional_739 (Bidirection  (None, 64)          9728        ['conv1d_369[0][0]']             
 al)                                                                                              
                                                                                                  
 dropout_736 (Dropout)          (None, 64)           0           ['dense_736[0][0]']              
                                                                                                  
 dropout_737 (Dropout)          (None, 64)           0           ['dense_737[0][0]']              
                                                                                                  
 dropout_738 (Dropout)          (None, 64)           0           ['dense_738[0][0]']              
                                                                                                  
 dropout_739 (Dropout)          (None, 64)           0           ['bidirectional_739[0][0]']      
                                                                                                  
 concatenate_184 (Concatenate)  (None, 256)          0           ['dropout_736[0][0]',            
                                                                  'dropout_737[0][0]',            
                                                                  'dropout_738[0][0]',            
                                                                  'dropout_739[0][0]']            
                                                                                                  
 dense_739 (Dense)              (None, 1)            257         ['concatenate_184[0][0]']        
                                                                                                  
==================================================================================================
Total params: 13,107
Trainable params: 13,107
Non-trainable params: 0
__________________________________________________________________________________________________
…
 bidirectional_757 (Bidirection  (None, None, 10)    280         ['masking_757[0][0]']            
 al)                                                                                              
                                                                                                  
 bidirectional_758 (Bidirection  (None, None, 10)    280         ['masking_758[0][0]']            
 al)                                                                                              
                                                                                                  
 conv1d_378 (Conv1D)            (None, 24, 5)        95          ['masking_759[0][0]']            
                                                                                                  
 lstm_1324 (LSTM)               (None, 5)            320         ['bidirectional_756[0][0]']      
                                                                                                  
 lstm_1326 (LSTM)               (None, 5)            320         ['bidirectional_757[0][0]']      
                                                                                                  
 lstm_1328 (LSTM)               (None, 5)            320         ['bidirectional_758[0][0]']      
                                                                                                  
 conv1d_379 (Conv1D)            (None, 24, 5)        155         ['conv1d_378[0][0]']             
                                                                                                  
 dense_756 (Dense)              (None, 64)           384         ['lstm_1324[0][0]']              
                                                                                                  
 dense_757 (Dense)              (None, 64)           384         ['lstm_1326[0][0]']              
                                                                                                  
 dense_758 (Dense)              (None, 64)           384         ['lstm_1328[0][0]']              
                                                                                                  
 bidirectional_759 (Bidirection  (None, 64)          9728        ['conv1d_379[0][0]']             
 al)                                                                                              
                                                                                                  
 dropout_756 (Dropout)          (None, 64)           0           ['dense_756[0][0]']              
                                                                                                  
 dropout_757 (Dropout)          (None, 64)           0           ['dense_757[0][0]']              
                                                                                                  
 dropout_758 (Dropout)          (None, 64)           0           ['dense_758[0][0]']              
                                                                                                  
 dropout_759 (Dropout)          (None, 64)           0           ['bidirectional_759[0][0]']      
                                                                                                  
 concatenate_189 (Concatenate)  (None, 256)          0           ['dropout_756[0][0]',            
                                                                  'dropout_757[0][0]',            
                                                                  'dropout_758[0][0]',            
                                                                  'dropout_759[0][0]']            
                                                                                                  
 dense_759 (Dense)              (None, 1)            257         ['concatenate_189[0][0]']        
                                                                                                  
==================================================================================================
Total params: 13,187
Trainable params: 13,187
Non-trainable params: 0
__________________________________________________________________________________________________
…
 bidirectional_777 (Bidirection  (None, None, 10)    280         ['masking_777[0][0]']            
 al)                                                                                              
                                                                                                  
 bidirectional_778 (Bidirection  (None, None, 10)    280         ['masking_778[0][0]']            
 al)                                                                                              
                                                                                                  
 conv1d_388 (Conv1D)            (None, 24, 5)        125         ['masking_779[0][0]']            
                                                                                                  
 lstm_1359 (LSTM)               (None, 5)            320         ['bidirectional_776[0][0]']      
                                                                                                  
 lstm_1361 (LSTM)               (None, 5)            320         ['bidirectional_777[0][0]']      
                                                                                                  
 lstm_1363 (LSTM)               (None, 5)            320         ['bidirectional_778[0][0]']      
                                                                                                  
 conv1d_389 (Conv1D)            (None, 24, 5)        205         ['conv1d_388[0][0]']             
                                                                                                  
 dense_776 (Dense)              (None, 64)           384         ['lstm_1359[0][0]']              
                                                                                                  
 dense_777 (Dense)              (None, 64)           384         ['lstm_1361[0][0]']              
                                                                                                  
 dense_778 (Dense)              (None, 64)           384         ['lstm_1363[0][0]']              
                                                                                                  
 bidirectional_779 (Bidirection  (None, 64)          9728        ['conv1d_389[0][0]']             
 al)                                                                                              
                                                                                                  
 dropout_776 (Dropout)          (None, 64)           0           ['dense_776[0][0]']              
                                                                                                  
 dropout_777 (Dropout)          (None, 64)           0           ['dense_777[0][0]']              
                                                                                                  
 dropout_778 (Dropout)          (None, 64)           0           ['dense_778[0][0]']              
                                                                                                  
 dropout_779 (Dropout)          (None, 64)           0           ['bidirectional_779[0][0]']      
                                                                                                  
 concatenate_194 (Concatenate)  (None, 256)          0           ['dropout_776[0][0]',            
                                                                  'dropout_777[0][0]',            
                                                                  'dropout_778[0][0]',            
                                                                  'dropout_779[0][0]']            
                                                                                                  
 dense_779 (Dense)              (None, 1)            257         ['concatenate_194[0][0]']        
                                                                                                  
==================================================================================================
Total params: 13,267
Trainable params: 13,267
Non-trainable params: 0
__________________________________________________________________________________________________
…
 bidirectional_797 (Bidirection  (None, None, 10)    280         ['masking_797[0][0]']            
 al)                                                                                              
                                                                                                  
 bidirectional_798 (Bidirection  (None, None, 10)    280         ['masking_798[0][0]']            
 al)                                                                                              
                                                                                                  
 conv1d_398 (Conv1D)            (None, 24, 5)        65          ['masking_799[0][0]']            
                                                                                                  
 lstm_1394 (LSTM)               (None, 5)            320         ['bidirectional_796[0][0]']      
                                                                                                  
 lstm_1396 (LSTM)               (None, 5)            320         ['bidirectional_797[0][0]']      
                                                                                                  
 lstm_1398 (LSTM)               (None, 5)            320         ['bidirectional_798[0][0]']      
                                                                                                  
 conv1d_399 (Conv1D)            (None, 24, 5)        105         ['conv1d_398[0][0]']             
                                                                                                  
 dense_796 (Dense)              (None, 96)           576         ['lstm_1394[0][0]']              
                                                                                                  
 dense_797 (Dense)              (None, 96)           576         ['lstm_1396[0][0]']              
                                                                                                  
 dense_798 (Dense)              (None, 96)           576         ['lstm_1398[0][0]']              
                                                                                                  
 bidirectional_799 (Bidirection  (None, 96)          20736       ['conv1d_399[0][0]']             
 al)                                                                                              
                                                                                                  
 dropout_796 (Dropout)          (None, 96)           0           ['dense_796[0][0]']              
                                                                                                  
 dropout_797 (Dropout)          (None, 96)           0           ['dense_797[0][0]']              
                                                                                                  
 dropout_798 (Dropout)          (None, 96)           0           ['dense_798[0][0]']              
                                                                                                  
 dropout_799 (Dropout)          (None, 96)           0           ['bidirectional_799[0][0]']      
                                                                                                  
 concatenate_199 (Concatenate)  (None, 384)          0           ['dropout_796[0][0]',            
                                                                  'dropout_797[0][0]',            
                                                                  'dropout_798[0][0]',            
                                                                  'dropout_799[0][0]']            
                                                                                                  
 dense_799 (Dense)              (None, 1)            385         ['concatenate_199[0][0]']        
                                                                                                  
==================================================================================================
Total params: 24,819
Trainable params: 24,819
Non-trainable params: 0
__________________________________________________________________________________________________
…
 bidirectional_817 (Bidirection  (None, None, 10)    280         ['masking_817[0][0]']            
 al)                                                                                              
                                                                                                  
 bidirectional_818 (Bidirection  (None, None, 10)    280         ['masking_818[0][0]']            
 al)                                                                                              
                                                                                                  
 conv1d_408 (Conv1D)            (None, 24, 5)        95          ['masking_819[0][0]']            
                                                                                                  
 lstm_1429 (LSTM)               (None, 5)            320         ['bidirectional_816[0][0]']      
                                                                                                  
 lstm_1431 (LSTM)               (None, 5)            320         ['bidirectional_817[0][0]']      
                                                                                                  
 lstm_1433 (LSTM)               (None, 5)            320         ['bidirectional_818[0][0]']      
                                                                                                  
 conv1d_409 (Conv1D)            (None, 24, 5)        155         ['conv1d_408[0][0]']             
                                                                                                  
 dense_816 (Dense)              (None, 96)           576         ['lstm_1429[0][0]']              
                                                                                                  
 dense_817 (Dense)              (None, 96)           576         ['lstm_1431[0][0]']              
                                                                                                  
 dense_818 (Dense)              (None, 96)           576         ['lstm_1433[0][0]']              
                                                                                                  
 bidirectional_819 (Bidirection  (None, 96)          20736       ['conv1d_409[0][0]']             
 al)                                                                                              
                                                                                                  
 dropout_816 (Dropout)          (None, 96)           0           ['dense_816[0][0]']              
                                                                                                  
 dropout_817 (Dropout)          (None, 96)           0           ['dense_817[0][0]']              
                                                                                                  
 dropout_818 (Dropout)          (None, 96)           0           ['dense_818[0][0]']              
                                                                                                  
 dropout_819 (Dropout)          (None, 96)           0           ['bidirectional_819[0][0]']      
                                                                                                  
 concatenate_204 (Concatenate)  (None, 384)          0           ['dropout_816[0][0]',            
                                                                  'dropout_817[0][0]',            
                                                                  'dropout_818[0][0]',            
                                                                  'dropout_819[0][0]']            
                                                                                                  
 dense_819 (Dense)              (None, 1)            385         ['concatenate_204[0][0]']        
                                                                                                  
==================================================================================================
Total params: 24,899
Trainable params: 24,899
Non-trainable params: 0
__________________________________________________________________________________________________
…
 bidirectional_837 (Bidirection  (None, None, 10)    280         ['masking_837[0][0]']            
 al)                                                                                              
                                                                                                  
 bidirectional_838 (Bidirection  (None, None, 10)    280         ['masking_838[0][0]']            
 al)                                                                                              
                                                                                                  
 conv1d_418 (Conv1D)            (None, 24, 5)        125         ['masking_839[0][0]']            
                                                                                                  
 lstm_1464 (LSTM)               (None, 5)            320         ['bidirectional_836[0][0]']      
                                                                                                  
 lstm_1466 (LSTM)               (None, 5)            320         ['bidirectional_837[0][0]']      
                                                                                                  
 lstm_1468 (LSTM)               (None, 5)            320         ['bidirectional_838[0][0]']      
                                                                                                  
 conv1d_419 (Conv1D)            (None, 24, 5)        205         ['conv1d_418[0][0]']             
                                                                                                  
 dense_836 (Dense)              (None, 96)           576         ['lstm_1464[0][0]']              
                                                                                                  
 dense_837 (Dense)              (None, 96)           576         ['lstm_1466[0][0]']              
                                                                                                  
 dense_838 (Dense)              (None, 96)           576         ['lstm_1468[0][0]']              
                                                                                                  
 bidirectional_839 (Bidirection  (None, 96)          20736       ['conv1d_419[0][0]']             
 al)                                                                                              
                                                                                                  
 dropout_836 (Dropout)          (None, 96)           0           ['dense_836[0][0]']              
                                                                                                  
 dropout_837 (Dropout)          (None, 96)           0           ['dense_837[0][0]']              
                                                                                                  
 dropout_838 (Dropout)          (None, 96)           0           ['dense_838[0][0]']              
                                                                                                  
 dropout_839 (Dropout)          (None, 96)           0           ['bidirectional_839[0][0]']      
                                                                                                  
 concatenate_209 (Concatenate)  (None, 384)          0           ['dropout_836[0][0]',            
                                                                  'dropout_837[0][0]',            
                                                                  'dropout_838[0][0]',            
                                                                  'dropout_839[0][0]']            
                                                                                                  
 dense_839 (Dense)              (None, 1)            385         ['concatenate_209[0][0]']        
                                                                                                  
==================================================================================================
Total params: 24,979
Trainable params: 24,979
Non-trainable params: 0
__________________________________________________________________________________________________
…
 bidirectional_857 (Bidirection  (None, None, 10)    280         ['masking_857[0][0]']            
 al)                                                                                              
                                                                                                  
 bidirectional_858 (Bidirection  (None, None, 10)    280         ['masking_858[0][0]']            
 al)                                                                                              
                                                                                                  
 conv1d_428 (Conv1D)            (None, 24, 5)        65          ['masking_859[0][0]']            
                                                                                                  
 lstm_1499 (LSTM)               (None, 5)            320         ['bidirectional_856[0][0]']      
                                                                                                  
 lstm_1501 (LSTM)               (None, 5)            320         ['bidirectional_857[0][0]']      
                                                                                                  
 lstm_1503 (LSTM)               (None, 5)            320         ['bidirectional_858[0][0]']      
                                                                                                  
 conv1d_429 (Conv1D)            (None, 24, 5)        105         ['conv1d_428[0][0]']             
                                                                                                  
 dense_856 (Dense)              (None, 128)          768         ['lstm_1499[0][0]']              
                                                                                                  
 dense_857 (Dense)              (None, 128)          768         ['lstm_1501[0][0]']              
                                                                                                  
 dense_858 (Dense)              (None, 128)          768         ['lstm_1503[0][0]']              
                                                                                                  
 bidirectional_859 (Bidirection  (None, 128)         35840       ['conv1d_429[0][0]']             
 al)                                                                                              
                                                                                                  
 dropout_856 (Dropout)          (None, 128)          0           ['dense_856[0][0]']              
                                                                                                  
 dropout_857 (Dropout)          (None, 128)          0           ['dense_857[0][0]']              
                                                                                                  
 dropout_858 (Dropout)          (None, 128)          0           ['dense_858[0][0]']              
                                                                                                  
 dropout_859 (Dropout)          (None, 128)          0           ['bidirectional_859[0][0]']      
                                                                                                  
 concatenate_214 (Concatenate)  (None, 512)          0           ['dropout_856[0][0]',            
                                                                  'dropout_857[0][0]',            
                                                                  'dropout_858[0][0]',            
                                                                  'dropout_859[0][0]']            
                                                                                                  
 dense_859 (Dense)              (None, 1)            513         ['concatenate_214[0][0]']        
                                                                                                  
==================================================================================================
Total params: 40,627
Trainable params: 40,627
Non-trainable params: 0
__________________________________________________________________________________________________
…
 bidirectional_877 (Bidirection  (None, None, 10)    280         ['masking_877[0][0]']            
 al)                                                                                              
                                                                                                  
 bidirectional_878 (Bidirection  (None, None, 10)    280         ['masking_878[0][0]']            
 al)                                                                                              
                                                                                                  
 conv1d_438 (Conv1D)            (None, 24, 5)        95          ['masking_879[0][0]']            
                                                                                                  
 lstm_1534 (LSTM)               (None, 5)            320         ['bidirectional_876[0][0]']      
                                                                                                  
 lstm_1536 (LSTM)               (None, 5)            320         ['bidirectional_877[0][0]']      
                                                                                                  
 lstm_1538 (LSTM)               (None, 5)            320         ['bidirectional_878[0][0]']      
                                                                                                  
 conv1d_439 (Conv1D)            (None, 24, 5)        155         ['conv1d_438[0][0]']             
                                                                                                  
 dense_876 (Dense)              (None, 128)          768         ['lstm_1534[0][0]']              
                                                                                                  
 dense_877 (Dense)              (None, 128)          768         ['lstm_1536[0][0]']              
                                                                                                  
 dense_878 (Dense)              (None, 128)          768         ['lstm_1538[0][0]']              
                                                                                                  
 bidirectional_879 (Bidirection  (None, 128)         35840       ['conv1d_439[0][0]']             
 al)                                                                                              
                                                                                                  
 dropout_876 (Dropout)          (None, 128)          0           ['dense_876[0][0]']              
                                                                                                  
 dropout_877 (Dropout)          (None, 128)          0           ['dense_877[0][0]']              
                                                                                                  
 dropout_878 (Dropout)          (None, 128)          0           ['dense_878[0][0]']              
                                                                                                  
 dropout_879 (Dropout)          (None, 128)          0           ['bidirectional_879[0][0]']      
                                                                                                  
 concatenate_219 (Concatenate)  (None, 512)          0           ['dropout_876[0][0]',            
                                                                  'dropout_877[0][0]',            
                                                                  'dropout_878[0][0]',            
                                                                  'dropout_879[0][0]']            
                                                                                                  
 dense_879 (Dense)              (None, 1)            513         ['concatenate_219[0][0]']        
                                                                                                  
==================================================================================================
Total params: 40,707
Trainable params: 40,707
Non-trainable params: 0
__________________________________________________________________________________________________
…
 bidirectional_897 (Bidirection  (None, None, 10)    280         ['masking_897[0][0]']            
 al)                                                                                              
                                                                                                  
 bidirectional_898 (Bidirection  (None, None, 10)    280         ['masking_898[0][0]']            
 al)                                                                                              
                                                                                                  
 conv1d_448 (Conv1D)            (None, 24, 5)        125         ['masking_899[0][0]']            
                                                                                                  
 lstm_1569 (LSTM)               (None, 5)            320         ['bidirectional_896[0][0]']      
                                                                                                  
 lstm_1571 (LSTM)               (None, 5)            320         ['bidirectional_897[0][0]']      
                                                                                                  
 lstm_1573 (LSTM)               (None, 5)            320         ['bidirectional_898[0][0]']      
                                                                                                  
 conv1d_449 (Conv1D)            (None, 24, 5)        205         ['conv1d_448[0][0]']             
                                                                                                  
 dense_896 (Dense)              (None, 128)          768         ['lstm_1569[0][0]']              
                                                                                                  
 dense_897 (Dense)              (None, 128)          768         ['lstm_1571[0][0]']              
                                                                                                  
 dense_898 (Dense)              (None, 128)          768         ['lstm_1573[0][0]']              
                                                                                                  
 bidirectional_899 (Bidirection  (None, 128)         35840       ['conv1d_449[0][0]']             
 al)                                                                                              
                                                                                                  
 dropout_896 (Dropout)          (None, 128)          0           ['dense_896[0][0]']              
                                                                                                  
 dropout_897 (Dropout)          (None, 128)          0           ['dense_897[0][0]']              
                                                                                                  
 dropout_898 (Dropout)          (None, 128)          0           ['dense_898[0][0]']              
                                                                                                  
 dropout_899 (Dropout)          (None, 128)          0           ['bidirectional_899[0][0]']      
                                                                                                  
 concatenate_224 (Concatenate)  (None, 512)          0           ['dropout_896[0][0]',            
                                                                  'dropout_897[0][0]',            
                                                                  'dropout_898[0][0]',            
                                                                  'dropout_899[0][0]']            
                                                                                                  
 dense_899 (Dense)              (None, 1)            513         ['concatenate_224[0][0]']        
                                                                                                  
==================================================================================================
Total params: 40,787
Trainable params: 40,787
Non-trainable params: 0
__________________________________________________________________________________________________
…
