…
 bidirectional_1 (Bidirectional  (None, None, 10)    280         ['masking_1[0][0]']              
 )                                                                                                
                                                                                                  
 bidirectional_2 (Bidirectional  (None, None, 10)    280         ['masking_2[0][0]']              
 )                                                                                                
                                                                                                  
 conv1d (Conv1D)                (None, 24, 5)        65          ['masking_3[0][0]']              
                                                                                                  
 lstm_1 (LSTM)                  (None, 5)            320         ['bidirectional[0][0]']          
                                                                                                  
 lstm_3 (LSTM)                  (None, 5)            320         ['bidirectional_1[0][0]']        
                                                                                                  
 lstm_5 (LSTM)                  (None, 5)            320         ['bidirectional_2[0][0]']        
                                                                                                  
 conv1d_1 (Conv1D)              (None, 24, 5)        105         ['conv1d[0][0]']                 
                                                                                                  
 dense (Dense)                  (None, 64)           384         ['lstm_1[0][0]']                 
                                                                                                  
 dense_1 (Dense)                (None, 64)           384         ['lstm_3[0][0]']                 
                                                                                                  
 dense_2 (Dense)                (None, 64)           384         ['lstm_5[0][0]']                 
                                                                                                  
 bidirectional_3 (Bidirectional  (None, 64)          9728        ['conv1d_1[0][0]']               
 )                                                                                                
                                                                                                  
 dropout (Dropout)              (None, 64)           0           ['dense[0][0]']                  
                                                                                                  
 dropout_1 (Dropout)            (None, 64)           0           ['dense_1[0][0]']                
                                                                                                  
 dropout_2 (Dropout)            (None, 64)           0           ['dense_2[0][0]']                
                                                                                                  
 dropout_3 (Dropout)            (None, 64)           0           ['bidirectional_3[0][0]']        
                                                                                                  
 concatenate (Concatenate)      (None, 256)          0           ['dropout[0][0]',                
                                                                  'dropout_1[0][0]',              
                                                                  'dropout_2[0][0]',              
                                                                  'dropout_3[0][0]']              
                                                                                                  
 dense_3 (Dense)                (None, 1)            257         ['concatenate[0][0]']            
                                                                                                  
==================================================================================================
Total params: 13,107
Trainable params: 13,107
Non-trainable params: 0
__________________________________________________________________________________________________
…
 bidirectional_21 (Bidirectiona  (None, None, 10)    280         ['masking_21[0][0]']             
 l)                                                                                               
                                                                                                  
 bidirectional_22 (Bidirectiona  (None, None, 10)    280         ['masking_22[0][0]']             
 l)                                                                                               
                                                                                                  
 conv1d_10 (Conv1D)             (None, 24, 5)        95          ['masking_23[0][0]']             
                                                                                                  
 lstm_36 (LSTM)                 (None, 5)            320         ['bidirectional_20[0][0]']       
                                                                                                  
 lstm_38 (LSTM)                 (None, 5)            320         ['bidirectional_21[0][0]']       
                                                                                                  
 lstm_40 (LSTM)                 (None, 5)            320         ['bidirectional_22[0][0]']       
                                                                                                  
 conv1d_11 (Conv1D)             (None, 24, 5)        155         ['conv1d_10[0][0]']              
                                                                                                  
 dense_20 (Dense)               (None, 64)           384         ['lstm_36[0][0]']                
                                                                                                  
 dense_21 (Dense)               (None, 64)           384         ['lstm_38[0][0]']                
                                                                                                  
 dense_22 (Dense)               (None, 64)           384         ['lstm_40[0][0]']                
                                                                                                  
 bidirectional_23 (Bidirectiona  (None, 64)          9728        ['conv1d_11[0][0]']              
 l)                                                                                               
                                                                                                  
 dropout_20 (Dropout)           (None, 64)           0           ['dense_20[0][0]']               
                                                                                                  
 dropout_21 (Dropout)           (None, 64)           0           ['dense_21[0][0]']               
                                                                                                  
 dropout_22 (Dropout)           (None, 64)           0           ['dense_22[0][0]']               
                                                                                                  
 dropout_23 (Dropout)           (None, 64)           0           ['bidirectional_23[0][0]']       
                                                                                                  
 concatenate_5 (Concatenate)    (None, 256)          0           ['dropout_20[0][0]',             
                                                                  'dropout_21[0][0]',             
                                                                  'dropout_22[0][0]',             
                                                                  'dropout_23[0][0]']             
                                                                                                  
 dense_23 (Dense)               (None, 1)            257         ['concatenate_5[0][0]']          
                                                                                                  
==================================================================================================
Total params: 13,187
Trainable params: 13,187
Non-trainable params: 0
__________________________________________________________________________________________________
…
 bidirectional_41 (Bidirectiona  (None, None, 10)    280         ['masking_41[0][0]']             
 l)                                                                                               
                                                                                                  
 bidirectional_42 (Bidirectiona  (None, None, 10)    280         ['masking_42[0][0]']             
 l)                                                                                               
                                                                                                  
 conv1d_20 (Conv1D)             (None, 24, 5)        125         ['masking_43[0][0]']             
                                                                                                  
 lstm_71 (LSTM)                 (None, 5)            320         ['bidirectional_40[0][0]']       
                                                                                                  
 lstm_73 (LSTM)                 (None, 5)            320         ['bidirectional_41[0][0]']       
                                                                                                  
 lstm_75 (LSTM)                 (None, 5)            320         ['bidirectional_42[0][0]']       
                                                                                                  
 conv1d_21 (Conv1D)             (None, 24, 5)        205         ['conv1d_20[0][0]']              
                                                                                                  
 dense_40 (Dense)               (None, 64)           384         ['lstm_71[0][0]']                
                                                                                                  
 dense_41 (Dense)               (None, 64)           384         ['lstm_73[0][0]']                
                                                                                                  
 dense_42 (Dense)               (None, 64)           384         ['lstm_75[0][0]']                
                                                                                                  
 bidirectional_43 (Bidirectiona  (None, 64)          9728        ['conv1d_21[0][0]']              
 l)                                                                                               
                                                                                                  
 dropout_40 (Dropout)           (None, 64)           0           ['dense_40[0][0]']               
                                                                                                  
 dropout_41 (Dropout)           (None, 64)           0           ['dense_41[0][0]']               
                                                                                                  
 dropout_42 (Dropout)           (None, 64)           0           ['dense_42[0][0]']               
                                                                                                  
 dropout_43 (Dropout)           (None, 64)           0           ['bidirectional_43[0][0]']       
                                                                                                  
 concatenate_10 (Concatenate)   (None, 256)          0           ['dropout_40[0][0]',             
                                                                  'dropout_41[0][0]',             
                                                                  'dropout_42[0][0]',             
                                                                  'dropout_43[0][0]']             
                                                                                                  
 dense_43 (Dense)               (None, 1)            257         ['concatenate_10[0][0]']         
                                                                                                  
==================================================================================================
Total params: 13,267
Trainable params: 13,267
Non-trainable params: 0
__________________________________________________________________________________________________
…
 bidirectional_61 (Bidirectiona  (None, None, 10)    280         ['masking_61[0][0]']             
 l)                                                                                               
                                                                                                  
 bidirectional_62 (Bidirectiona  (None, None, 10)    280         ['masking_62[0][0]']             
 l)                                                                                               
                                                                                                  
 conv1d_30 (Conv1D)             (None, 24, 5)        65          ['masking_63[0][0]']             
                                                                                                  
 lstm_106 (LSTM)                (None, 5)            320         ['bidirectional_60[0][0]']       
                                                                                                  
 lstm_108 (LSTM)                (None, 5)            320         ['bidirectional_61[0][0]']       
                                                                                                  
 lstm_110 (LSTM)                (None, 5)            320         ['bidirectional_62[0][0]']       
                                                                                                  
 conv1d_31 (Conv1D)             (None, 24, 5)        105         ['conv1d_30[0][0]']              
                                                                                                  
 dense_60 (Dense)               (None, 96)           576         ['lstm_106[0][0]']               
                                                                                                  
 dense_61 (Dense)               (None, 96)           576         ['lstm_108[0][0]']               
                                                                                                  
 dense_62 (Dense)               (None, 96)           576         ['lstm_110[0][0]']               
                                                                                                  
 bidirectional_63 (Bidirectiona  (None, 96)          20736       ['conv1d_31[0][0]']              
 l)                                                                                               
                                                                                                  
 dropout_60 (Dropout)           (None, 96)           0           ['dense_60[0][0]']               
                                                                                                  
 dropout_61 (Dropout)           (None, 96)           0           ['dense_61[0][0]']               
                                                                                                  
 dropout_62 (Dropout)           (None, 96)           0           ['dense_62[0][0]']               
                                                                                                  
 dropout_63 (Dropout)           (None, 96)           0           ['bidirectional_63[0][0]']       
                                                                                                  
 concatenate_15 (Concatenate)   (None, 384)          0           ['dropout_60[0][0]',             
                                                                  'dropout_61[0][0]',             
                                                                  'dropout_62[0][0]',             
                                                                  'dropout_63[0][0]']             
                                                                                                  
 dense_63 (Dense)               (None, 1)            385         ['concatenate_15[0][0]']         
                                                                                                  
==================================================================================================
Total params: 24,819
Trainable params: 24,819
Non-trainable params: 0
__________________________________________________________________________________________________
…
 bidirectional_81 (Bidirectiona  (None, None, 10)    280         ['masking_81[0][0]']             
 l)                                                                                               
                                                                                                  
 bidirectional_82 (Bidirectiona  (None, None, 10)    280         ['masking_82[0][0]']             
 l)                                                                                               
                                                                                                  
 conv1d_40 (Conv1D)             (None, 24, 5)        95          ['masking_83[0][0]']             
                                                                                                  
 lstm_141 (LSTM)                (None, 5)            320         ['bidirectional_80[0][0]']       
                                                                                                  
 lstm_143 (LSTM)                (None, 5)            320         ['bidirectional_81[0][0]']       
                                                                                                  
 lstm_145 (LSTM)                (None, 5)            320         ['bidirectional_82[0][0]']       
                                                                                                  
 conv1d_41 (Conv1D)             (None, 24, 5)        155         ['conv1d_40[0][0]']              
                                                                                                  
 dense_80 (Dense)               (None, 96)           576         ['lstm_141[0][0]']               
                                                                                                  
 dense_81 (Dense)               (None, 96)           576         ['lstm_143[0][0]']               
                                                                                                  
 dense_82 (Dense)               (None, 96)           576         ['lstm_145[0][0]']               
                                                                                                  
 bidirectional_83 (Bidirectiona  (None, 96)          20736       ['conv1d_41[0][0]']              
 l)                                                                                               
                                                                                                  
 dropout_80 (Dropout)           (None, 96)           0           ['dense_80[0][0]']               
                                                                                                  
 dropout_81 (Dropout)           (None, 96)           0           ['dense_81[0][0]']               
                                                                                                  
 dropout_82 (Dropout)           (None, 96)           0           ['dense_82[0][0]']               
                                                                                                  
 dropout_83 (Dropout)           (None, 96)           0           ['bidirectional_83[0][0]']       
                                                                                                  
 concatenate_20 (Concatenate)   (None, 384)          0           ['dropout_80[0][0]',             
                                                                  'dropout_81[0][0]',             
                                                                  'dropout_82[0][0]',             
                                                                  'dropout_83[0][0]']             
                                                                                                  
 dense_83 (Dense)               (None, 1)            385         ['concatenate_20[0][0]']         
                                                                                                  
==================================================================================================
Total params: 24,899
Trainable params: 24,899
Non-trainable params: 0
__________________________________________________________________________________________________
…
 bidirectional_101 (Bidirection  (None, None, 10)    280         ['masking_101[0][0]']            
 al)                                                                                              
                                                                                                  
 bidirectional_102 (Bidirection  (None, None, 10)    280         ['masking_102[0][0]']            
 al)                                                                                              
                                                                                                  
 conv1d_50 (Conv1D)             (None, 24, 5)        125         ['masking_103[0][0]']            
                                                                                                  
 lstm_176 (LSTM)                (None, 5)            320         ['bidirectional_100[0][0]']      
                                                                                                  
 lstm_178 (LSTM)                (None, 5)            320         ['bidirectional_101[0][0]']      
                                                                                                  
 lstm_180 (LSTM)                (None, 5)            320         ['bidirectional_102[0][0]']      
                                                                                                  
 conv1d_51 (Conv1D)             (None, 24, 5)        205         ['conv1d_50[0][0]']              
                                                                                                  
 dense_100 (Dense)              (None, 96)           576         ['lstm_176[0][0]']               
                                                                                                  
 dense_101 (Dense)              (None, 96)           576         ['lstm_178[0][0]']               
                                                                                                  
 dense_102 (Dense)              (None, 96)           576         ['lstm_180[0][0]']               
                                                                                                  
 bidirectional_103 (Bidirection  (None, 96)          20736       ['conv1d_51[0][0]']              
 al)                                                                                              
                                                                                                  
 dropout_100 (Dropout)          (None, 96)           0           ['dense_100[0][0]']              
                                                                                                  
 dropout_101 (Dropout)          (None, 96)           0           ['dense_101[0][0]']              
                                                                                                  
 dropout_102 (Dropout)          (None, 96)           0           ['dense_102[0][0]']              
                                                                                                  
 dropout_103 (Dropout)          (None, 96)           0           ['bidirectional_103[0][0]']      
                                                                                                  
 concatenate_25 (Concatenate)   (None, 384)          0           ['dropout_100[0][0]',            
                                                                  'dropout_101[0][0]',            
                                                                  'dropout_102[0][0]',            
                                                                  'dropout_103[0][0]']            
                                                                                                  
 dense_103 (Dense)              (None, 1)            385         ['concatenate_25[0][0]']         
                                                                                                  
==================================================================================================
Total params: 24,979
Trainable params: 24,979
Non-trainable params: 0
__________________________________________________________________________________________________
…
 bidirectional_121 (Bidirection  (None, None, 10)    280         ['masking_121[0][0]']            
 al)                                                                                              
                                                                                                  
 bidirectional_122 (Bidirection  (None, None, 10)    280         ['masking_122[0][0]']            
 al)                                                                                              
                                                                                                  
 conv1d_60 (Conv1D)             (None, 24, 5)        65          ['masking_123[0][0]']            
                                                                                                  
 lstm_211 (LSTM)                (None, 5)            320         ['bidirectional_120[0][0]']      
                                                                                                  
 lstm_213 (LSTM)                (None, 5)            320         ['bidirectional_121[0][0]']      
                                                                                                  
 lstm_215 (LSTM)                (None, 5)            320         ['bidirectional_122[0][0]']      
                                                                                                  
 conv1d_61 (Conv1D)             (None, 24, 5)        105         ['conv1d_60[0][0]']              
                                                                                                  
 dense_120 (Dense)              (None, 128)          768         ['lstm_211[0][0]']               
                                                                                                  
 dense_121 (Dense)              (None, 128)          768         ['lstm_213[0][0]']               
                                                                                                  
 dense_122 (Dense)              (None, 128)          768         ['lstm_215[0][0]']               
                                                                                                  
 bidirectional_123 (Bidirection  (None, 128)         35840       ['conv1d_61[0][0]']              
 al)                                                                                              
                                                                                                  
 dropout_120 (Dropout)          (None, 128)          0           ['dense_120[0][0]']              
                                                                                                  
 dropout_121 (Dropout)          (None, 128)          0           ['dense_121[0][0]']              
                                                                                                  
 dropout_122 (Dropout)          (None, 128)          0           ['dense_122[0][0]']              
                                                                                                  
 dropout_123 (Dropout)          (None, 128)          0           ['bidirectional_123[0][0]']      
                                                                                                  
 concatenate_30 (Concatenate)   (None, 512)          0           ['dropout_120[0][0]',            
                                                                  'dropout_121[0][0]',            
                                                                  'dropout_122[0][0]',            
                                                                  'dropout_123[0][0]']            
                                                                                                  
 dense_123 (Dense)              (None, 1)            513         ['concatenate_30[0][0]']         
                                                                                                  
==================================================================================================
Total params: 40,627
Trainable params: 40,627
Non-trainable params: 0
__________________________________________________________________________________________________
…
 bidirectional_141 (Bidirection  (None, None, 10)    280         ['masking_141[0][0]']            
 al)                                                                                              
                                                                                                  
 bidirectional_142 (Bidirection  (None, None, 10)    280         ['masking_142[0][0]']            
 al)                                                                                              
                                                                                                  
 conv1d_70 (Conv1D)             (None, 24, 5)        95          ['masking_143[0][0]']            
                                                                                                  
 lstm_246 (LSTM)                (None, 5)            320         ['bidirectional_140[0][0]']      
                                                                                                  
 lstm_248 (LSTM)                (None, 5)            320         ['bidirectional_141[0][0]']      
                                                                                                  
 lstm_250 (LSTM)                (None, 5)            320         ['bidirectional_142[0][0]']      
                                                                                                  
 conv1d_71 (Conv1D)             (None, 24, 5)        155         ['conv1d_70[0][0]']              
                                                                                                  
 dense_140 (Dense)              (None, 128)          768         ['lstm_246[0][0]']               
                                                                                                  
 dense_141 (Dense)              (None, 128)          768         ['lstm_248[0][0]']               
                                                                                                  
 dense_142 (Dense)              (None, 128)          768         ['lstm_250[0][0]']               
                                                                                                  
 bidirectional_143 (Bidirection  (None, 128)         35840       ['conv1d_71[0][0]']              
 al)                                                                                              
                                                                                                  
 dropout_140 (Dropout)          (None, 128)          0           ['dense_140[0][0]']              
                                                                                                  
 dropout_141 (Dropout)          (None, 128)          0           ['dense_141[0][0]']              
                                                                                                  
 dropout_142 (Dropout)          (None, 128)          0           ['dense_142[0][0]']              
                                                                                                  
 dropout_143 (Dropout)          (None, 128)          0           ['bidirectional_143[0][0]']      
                                                                                                  
 concatenate_35 (Concatenate)   (None, 512)          0           ['dropout_140[0][0]',            
                                                                  'dropout_141[0][0]',            
                                                                  'dropout_142[0][0]',            
                                                                  'dropout_143[0][0]']            
                                                                                                  
 dense_143 (Dense)              (None, 1)            513         ['concatenate_35[0][0]']         
                                                                                                  
==================================================================================================
Total params: 40,707
Trainable params: 40,707
Non-trainable params: 0
__________________________________________________________________________________________________
…
 bidirectional_161 (Bidirection  (None, None, 10)    280         ['masking_161[0][0]']            
 al)                                                                                              
                                                                                                  
 bidirectional_162 (Bidirection  (None, None, 10)    280         ['masking_162[0][0]']            
 al)                                                                                              
                                                                                                  
 conv1d_80 (Conv1D)             (None, 24, 5)        125         ['masking_163[0][0]']            
                                                                                                  
 lstm_281 (LSTM)                (None, 5)            320         ['bidirectional_160[0][0]']      
                                                                                                  
 lstm_283 (LSTM)                (None, 5)            320         ['bidirectional_161[0][0]']      
                                                                                                  
 lstm_285 (LSTM)                (None, 5)            320         ['bidirectional_162[0][0]']      
                                                                                                  
 conv1d_81 (Conv1D)             (None, 24, 5)        205         ['conv1d_80[0][0]']              
                                                                                                  
 dense_160 (Dense)              (None, 128)          768         ['lstm_281[0][0]']               
                                                                                                  
 dense_161 (Dense)              (None, 128)          768         ['lstm_283[0][0]']               
                                                                                                  
 dense_162 (Dense)              (None, 128)          768         ['lstm_285[0][0]']               
                                                                                                  
 bidirectional_163 (Bidirection  (None, 128)         35840       ['conv1d_81[0][0]']              
 al)                                                                                              
                                                                                                  
 dropout_160 (Dropout)          (None, 128)          0           ['dense_160[0][0]']              
                                                                                                  
 dropout_161 (Dropout)          (None, 128)          0           ['dense_161[0][0]']              
                                                                                                  
 dropout_162 (Dropout)          (None, 128)          0           ['dense_162[0][0]']              
                                                                                                  
 dropout_163 (Dropout)          (None, 128)          0           ['bidirectional_163[0][0]']      
                                                                                                  
 concatenate_40 (Concatenate)   (None, 512)          0           ['dropout_160[0][0]',            
                                                                  'dropout_161[0][0]',            
                                                                  'dropout_162[0][0]',            
                                                                  'dropout_163[0][0]']            
                                                                                                  
 dense_163 (Dense)              (None, 1)            513         ['concatenate_40[0][0]']         
                                                                                                  
==================================================================================================
Total params: 40,787
Trainable params: 40,787
Non-trainable params: 0
__________________________________________________________________________________________________
…
