…
 bidirectional_369 (Bidirection  (None, None, 10)    280         ['masking_369[0][0]']            
 al)                                                                                              
                                                                                                  
 bidirectional_370 (Bidirection  (None, None, 10)    280         ['masking_370[0][0]']            
 al)                                                                                              
                                                                                                  
 conv1d_184 (Conv1D)            (None, 25, 5)        1905        ['masking_371[0][0]']            
                                                                                                  
 lstm_645 (LSTM)                (None, 5)            320         ['bidirectional_368[0][0]']      
                                                                                                  
 lstm_647 (LSTM)                (None, 5)            320         ['bidirectional_369[0][0]']      
                                                                                                  
 lstm_649 (LSTM)                (None, 5)            320         ['bidirectional_370[0][0]']      
                                                                                                  
 conv1d_185 (Conv1D)            (None, 25, 5)        105         ['conv1d_184[0][0]']             
                                                                                                  
 dense_368 (Dense)              (None, 64)           384         ['lstm_645[0][0]']               
                                                                                                  
 dense_369 (Dense)              (None, 64)           384         ['lstm_647[0][0]']               
                                                                                                  
 dense_370 (Dense)              (None, 64)           384         ['lstm_649[0][0]']               
                                                                                                  
 bidirectional_371 (Bidirection  (None, 64)          9728        ['conv1d_185[0][0]']             
 al)                                                                                              
                                                                                                  
 dropout_368 (Dropout)          (None, 64)           0           ['dense_368[0][0]']              
                                                                                                  
 dropout_369 (Dropout)          (None, 64)           0           ['dense_369[0][0]']              
                                                                                                  
 dropout_370 (Dropout)          (None, 64)           0           ['dense_370[0][0]']              
                                                                                                  
 dropout_371 (Dropout)          (None, 64)           0           ['bidirectional_371[0][0]']      
                                                                                                  
 concatenate_92 (Concatenate)   (None, 256)          0           ['dropout_368[0][0]',            
                                                                  'dropout_369[0][0]',            
                                                                  'dropout_370[0][0]',            
                                                                  'dropout_371[0][0]']            
                                                                                                  
 dense_371 (Dense)              (None, 1)            257         ['concatenate_92[0][0]']         
                                                                                                  
==================================================================================================
Total params: 14,947
Trainable params: 14,947
Non-trainable params: 0
__________________________________________________________________________________________________
…
 bidirectional_389 (Bidirection  (None, None, 10)    280         ['masking_389[0][0]']            
 al)                                                                                              
                                                                                                  
 bidirectional_390 (Bidirection  (None, None, 10)    280         ['masking_390[0][0]']            
 al)                                                                                              
                                                                                                  
 conv1d_194 (Conv1D)            (None, 25, 5)        2855        ['masking_391[0][0]']            
                                                                                                  
 lstm_680 (LSTM)                (None, 5)            320         ['bidirectional_388[0][0]']      
                                                                                                  
 lstm_682 (LSTM)                (None, 5)            320         ['bidirectional_389[0][0]']      
                                                                                                  
 lstm_684 (LSTM)                (None, 5)            320         ['bidirectional_390[0][0]']      
                                                                                                  
 conv1d_195 (Conv1D)            (None, 25, 5)        155         ['conv1d_194[0][0]']             
                                                                                                  
 dense_388 (Dense)              (None, 64)           384         ['lstm_680[0][0]']               
                                                                                                  
 dense_389 (Dense)              (None, 64)           384         ['lstm_682[0][0]']               
                                                                                                  
 dense_390 (Dense)              (None, 64)           384         ['lstm_684[0][0]']               
                                                                                                  
 bidirectional_391 (Bidirection  (None, 64)          9728        ['conv1d_195[0][0]']             
 al)                                                                                              
                                                                                                  
 dropout_388 (Dropout)          (None, 64)           0           ['dense_388[0][0]']              
                                                                                                  
 dropout_389 (Dropout)          (None, 64)           0           ['dense_389[0][0]']              
                                                                                                  
 dropout_390 (Dropout)          (None, 64)           0           ['dense_390[0][0]']              
                                                                                                  
 dropout_391 (Dropout)          (None, 64)           0           ['bidirectional_391[0][0]']      
                                                                                                  
 concatenate_97 (Concatenate)   (None, 256)          0           ['dropout_388[0][0]',            
                                                                  'dropout_389[0][0]',            
                                                                  'dropout_390[0][0]',            
                                                                  'dropout_391[0][0]']            
                                                                                                  
 dense_391 (Dense)              (None, 1)            257         ['concatenate_97[0][0]']         
                                                                                                  
==================================================================================================
Total params: 15,947
Trainable params: 15,947
Non-trainable params: 0
__________________________________________________________________________________________________
…
 bidirectional_409 (Bidirection  (None, None, 10)    280         ['masking_409[0][0]']            
 al)                                                                                              
                                                                                                  
 bidirectional_410 (Bidirection  (None, None, 10)    280         ['masking_410[0][0]']            
 al)                                                                                              
                                                                                                  
 conv1d_204 (Conv1D)            (None, 25, 5)        3805        ['masking_411[0][0]']            
                                                                                                  
 lstm_715 (LSTM)                (None, 5)            320         ['bidirectional_408[0][0]']      
                                                                                                  
 lstm_717 (LSTM)                (None, 5)            320         ['bidirectional_409[0][0]']      
                                                                                                  
 lstm_719 (LSTM)                (None, 5)            320         ['bidirectional_410[0][0]']      
                                                                                                  
 conv1d_205 (Conv1D)            (None, 25, 5)        205         ['conv1d_204[0][0]']             
                                                                                                  
 dense_408 (Dense)              (None, 64)           384         ['lstm_715[0][0]']               
                                                                                                  
 dense_409 (Dense)              (None, 64)           384         ['lstm_717[0][0]']               
                                                                                                  
 dense_410 (Dense)              (None, 64)           384         ['lstm_719[0][0]']               
                                                                                                  
 bidirectional_411 (Bidirection  (None, 64)          9728        ['conv1d_205[0][0]']             
 al)                                                                                              
                                                                                                  
 dropout_408 (Dropout)          (None, 64)           0           ['dense_408[0][0]']              
                                                                                                  
 dropout_409 (Dropout)          (None, 64)           0           ['dense_409[0][0]']              
                                                                                                  
 dropout_410 (Dropout)          (None, 64)           0           ['dense_410[0][0]']              
                                                                                                  
 dropout_411 (Dropout)          (None, 64)           0           ['bidirectional_411[0][0]']      
                                                                                                  
 concatenate_102 (Concatenate)  (None, 256)          0           ['dropout_408[0][0]',            
                                                                  'dropout_409[0][0]',            
                                                                  'dropout_410[0][0]',            
                                                                  'dropout_411[0][0]']            
                                                                                                  
 dense_411 (Dense)              (None, 1)            257         ['concatenate_102[0][0]']        
                                                                                                  
==================================================================================================
Total params: 16,947
Trainable params: 16,947
Non-trainable params: 0
__________________________________________________________________________________________________
…
 bidirectional_429 (Bidirection  (None, None, 10)    280         ['masking_429[0][0]']            
 al)                                                                                              
                                                                                                  
 bidirectional_430 (Bidirection  (None, None, 10)    280         ['masking_430[0][0]']            
 al)                                                                                              
                                                                                                  
 conv1d_214 (Conv1D)            (None, 25, 5)        1905        ['masking_431[0][0]']            
                                                                                                  
 lstm_750 (LSTM)                (None, 5)            320         ['bidirectional_428[0][0]']      
                                                                                                  
 lstm_752 (LSTM)                (None, 5)            320         ['bidirectional_429[0][0]']      
                                                                                                  
 lstm_754 (LSTM)                (None, 5)            320         ['bidirectional_430[0][0]']      
                                                                                                  
 conv1d_215 (Conv1D)            (None, 25, 5)        105         ['conv1d_214[0][0]']             
                                                                                                  
 dense_428 (Dense)              (None, 96)           576         ['lstm_750[0][0]']               
                                                                                                  
 dense_429 (Dense)              (None, 96)           576         ['lstm_752[0][0]']               
                                                                                                  
 dense_430 (Dense)              (None, 96)           576         ['lstm_754[0][0]']               
                                                                                                  
 bidirectional_431 (Bidirection  (None, 96)          20736       ['conv1d_215[0][0]']             
 al)                                                                                              
                                                                                                  
 dropout_428 (Dropout)          (None, 96)           0           ['dense_428[0][0]']              
                                                                                                  
 dropout_429 (Dropout)          (None, 96)           0           ['dense_429[0][0]']              
                                                                                                  
 dropout_430 (Dropout)          (None, 96)           0           ['dense_430[0][0]']              
                                                                                                  
 dropout_431 (Dropout)          (None, 96)           0           ['bidirectional_431[0][0]']      
                                                                                                  
 concatenate_107 (Concatenate)  (None, 384)          0           ['dropout_428[0][0]',            
                                                                  'dropout_429[0][0]',            
                                                                  'dropout_430[0][0]',            
                                                                  'dropout_431[0][0]']            
                                                                                                  
 dense_431 (Dense)              (None, 1)            385         ['concatenate_107[0][0]']        
                                                                                                  
==================================================================================================
Total params: 26,659
Trainable params: 26,659
Non-trainable params: 0
__________________________________________________________________________________________________
…
 bidirectional_449 (Bidirection  (None, None, 10)    280         ['masking_449[0][0]']            
 al)                                                                                              
                                                                                                  
 bidirectional_450 (Bidirection  (None, None, 10)    280         ['masking_450[0][0]']            
 al)                                                                                              
                                                                                                  
 conv1d_224 (Conv1D)            (None, 25, 5)        2855        ['masking_451[0][0]']            
                                                                                                  
 lstm_785 (LSTM)                (None, 5)            320         ['bidirectional_448[0][0]']      
                                                                                                  
 lstm_787 (LSTM)                (None, 5)            320         ['bidirectional_449[0][0]']      
                                                                                                  
 lstm_789 (LSTM)                (None, 5)            320         ['bidirectional_450[0][0]']      
                                                                                                  
 conv1d_225 (Conv1D)            (None, 25, 5)        155         ['conv1d_224[0][0]']             
                                                                                                  
 dense_448 (Dense)              (None, 96)           576         ['lstm_785[0][0]']               
                                                                                                  
 dense_449 (Dense)              (None, 96)           576         ['lstm_787[0][0]']               
                                                                                                  
 dense_450 (Dense)              (None, 96)           576         ['lstm_789[0][0]']               
                                                                                                  
 bidirectional_451 (Bidirection  (None, 96)          20736       ['conv1d_225[0][0]']             
 al)                                                                                              
                                                                                                  
 dropout_448 (Dropout)          (None, 96)           0           ['dense_448[0][0]']              
                                                                                                  
 dropout_449 (Dropout)          (None, 96)           0           ['dense_449[0][0]']              
                                                                                                  
 dropout_450 (Dropout)          (None, 96)           0           ['dense_450[0][0]']              
                                                                                                  
 dropout_451 (Dropout)          (None, 96)           0           ['bidirectional_451[0][0]']      
                                                                                                  
 concatenate_112 (Concatenate)  (None, 384)          0           ['dropout_448[0][0]',            
                                                                  'dropout_449[0][0]',            
                                                                  'dropout_450[0][0]',            
                                                                  'dropout_451[0][0]']            
                                                                                                  
 dense_451 (Dense)              (None, 1)            385         ['concatenate_112[0][0]']        
                                                                                                  
==================================================================================================
Total params: 27,659
Trainable params: 27,659
Non-trainable params: 0
__________________________________________________________________________________________________
…
 bidirectional_469 (Bidirection  (None, None, 10)    280         ['masking_469[0][0]']            
 al)                                                                                              
                                                                                                  
 bidirectional_470 (Bidirection  (None, None, 10)    280         ['masking_470[0][0]']            
 al)                                                                                              
                                                                                                  
 conv1d_234 (Conv1D)            (None, 25, 5)        3805        ['masking_471[0][0]']            
                                                                                                  
 lstm_820 (LSTM)                (None, 5)            320         ['bidirectional_468[0][0]']      
                                                                                                  
 lstm_822 (LSTM)                (None, 5)            320         ['bidirectional_469[0][0]']      
                                                                                                  
 lstm_824 (LSTM)                (None, 5)            320         ['bidirectional_470[0][0]']      
                                                                                                  
 conv1d_235 (Conv1D)            (None, 25, 5)        205         ['conv1d_234[0][0]']             
                                                                                                  
 dense_468 (Dense)              (None, 96)           576         ['lstm_820[0][0]']               
                                                                                                  
 dense_469 (Dense)              (None, 96)           576         ['lstm_822[0][0]']               
                                                                                                  
 dense_470 (Dense)              (None, 96)           576         ['lstm_824[0][0]']               
                                                                                                  
 bidirectional_471 (Bidirection  (None, 96)          20736       ['conv1d_235[0][0]']             
 al)                                                                                              
                                                                                                  
 dropout_468 (Dropout)          (None, 96)           0           ['dense_468[0][0]']              
                                                                                                  
 dropout_469 (Dropout)          (None, 96)           0           ['dense_469[0][0]']              
                                                                                                  
 dropout_470 (Dropout)          (None, 96)           0           ['dense_470[0][0]']              
                                                                                                  
 dropout_471 (Dropout)          (None, 96)           0           ['bidirectional_471[0][0]']      
                                                                                                  
 concatenate_117 (Concatenate)  (None, 384)          0           ['dropout_468[0][0]',            
                                                                  'dropout_469[0][0]',            
                                                                  'dropout_470[0][0]',            
                                                                  'dropout_471[0][0]']            
                                                                                                  
 dense_471 (Dense)              (None, 1)            385         ['concatenate_117[0][0]']        
                                                                                                  
==================================================================================================
Total params: 28,659
Trainable params: 28,659
Non-trainable params: 0
__________________________________________________________________________________________________
…
 bidirectional_489 (Bidirection  (None, None, 10)    280         ['masking_489[0][0]']            
 al)                                                                                              
                                                                                                  
 bidirectional_490 (Bidirection  (None, None, 10)    280         ['masking_490[0][0]']            
 al)                                                                                              
                                                                                                  
 conv1d_244 (Conv1D)            (None, 25, 5)        1905        ['masking_491[0][0]']            
                                                                                                  
 lstm_855 (LSTM)                (None, 5)            320         ['bidirectional_488[0][0]']      
                                                                                                  
 lstm_857 (LSTM)                (None, 5)            320         ['bidirectional_489[0][0]']      
                                                                                                  
 lstm_859 (LSTM)                (None, 5)            320         ['bidirectional_490[0][0]']      
                                                                                                  
 conv1d_245 (Conv1D)            (None, 25, 5)        105         ['conv1d_244[0][0]']             
                                                                                                  
 dense_488 (Dense)              (None, 128)          768         ['lstm_855[0][0]']               
                                                                                                  
 dense_489 (Dense)              (None, 128)          768         ['lstm_857[0][0]']               
                                                                                                  
 dense_490 (Dense)              (None, 128)          768         ['lstm_859[0][0]']               
                                                                                                  
 bidirectional_491 (Bidirection  (None, 128)         35840       ['conv1d_245[0][0]']             
 al)                                                                                              
                                                                                                  
 dropout_488 (Dropout)          (None, 128)          0           ['dense_488[0][0]']              
                                                                                                  
 dropout_489 (Dropout)          (None, 128)          0           ['dense_489[0][0]']              
                                                                                                  
 dropout_490 (Dropout)          (None, 128)          0           ['dense_490[0][0]']              
                                                                                                  
 dropout_491 (Dropout)          (None, 128)          0           ['bidirectional_491[0][0]']      
                                                                                                  
 concatenate_122 (Concatenate)  (None, 512)          0           ['dropout_488[0][0]',            
                                                                  'dropout_489[0][0]',            
                                                                  'dropout_490[0][0]',            
                                                                  'dropout_491[0][0]']            
                                                                                                  
 dense_491 (Dense)              (None, 1)            513         ['concatenate_122[0][0]']        
                                                                                                  
==================================================================================================
Total params: 42,467
Trainable params: 42,467
Non-trainable params: 0
__________________________________________________________________________________________________
…
 bidirectional_509 (Bidirection  (None, None, 10)    280         ['masking_509[0][0]']            
 al)                                                                                              
                                                                                                  
 bidirectional_510 (Bidirection  (None, None, 10)    280         ['masking_510[0][0]']            
 al)                                                                                              
                                                                                                  
 conv1d_254 (Conv1D)            (None, 25, 5)        2855        ['masking_511[0][0]']            
                                                                                                  
 lstm_890 (LSTM)                (None, 5)            320         ['bidirectional_508[0][0]']      
                                                                                                  
 lstm_892 (LSTM)                (None, 5)            320         ['bidirectional_509[0][0]']      
                                                                                                  
 lstm_894 (LSTM)                (None, 5)            320         ['bidirectional_510[0][0]']      
                                                                                                  
 conv1d_255 (Conv1D)            (None, 25, 5)        155         ['conv1d_254[0][0]']             
                                                                                                  
 dense_508 (Dense)              (None, 128)          768         ['lstm_890[0][0]']               
                                                                                                  
 dense_509 (Dense)              (None, 128)          768         ['lstm_892[0][0]']               
                                                                                                  
 dense_510 (Dense)              (None, 128)          768         ['lstm_894[0][0]']               
                                                                                                  
 bidirectional_511 (Bidirection  (None, 128)         35840       ['conv1d_255[0][0]']             
 al)                                                                                              
                                                                                                  
 dropout_508 (Dropout)          (None, 128)          0           ['dense_508[0][0]']              
                                                                                                  
 dropout_509 (Dropout)          (None, 128)          0           ['dense_509[0][0]']              
                                                                                                  
 dropout_510 (Dropout)          (None, 128)          0           ['dense_510[0][0]']              
                                                                                                  
 dropout_511 (Dropout)          (None, 128)          0           ['bidirectional_511[0][0]']      
                                                                                                  
 concatenate_127 (Concatenate)  (None, 512)          0           ['dropout_508[0][0]',            
                                                                  'dropout_509[0][0]',            
                                                                  'dropout_510[0][0]',            
                                                                  'dropout_511[0][0]']            
                                                                                                  
 dense_511 (Dense)              (None, 1)            513         ['concatenate_127[0][0]']        
                                                                                                  
==================================================================================================
Total params: 43,467
Trainable params: 43,467
Non-trainable params: 0
__________________________________________________________________________________________________
…
 bidirectional_529 (Bidirection  (None, None, 10)    280         ['masking_529[0][0]']            
 al)                                                                                              
                                                                                                  
 bidirectional_530 (Bidirection  (None, None, 10)    280         ['masking_530[0][0]']            
 al)                                                                                              
                                                                                                  
 conv1d_264 (Conv1D)            (None, 25, 5)        3805        ['masking_531[0][0]']            
                                                                                                  
 lstm_925 (LSTM)                (None, 5)            320         ['bidirectional_528[0][0]']      
                                                                                                  
 lstm_927 (LSTM)                (None, 5)            320         ['bidirectional_529[0][0]']      
                                                                                                  
 lstm_929 (LSTM)                (None, 5)            320         ['bidirectional_530[0][0]']      
                                                                                                  
 conv1d_265 (Conv1D)            (None, 25, 5)        205         ['conv1d_264[0][0]']             
                                                                                                  
 dense_528 (Dense)              (None, 128)          768         ['lstm_925[0][0]']               
                                                                                                  
 dense_529 (Dense)              (None, 128)          768         ['lstm_927[0][0]']               
                                                                                                  
 dense_530 (Dense)              (None, 128)          768         ['lstm_929[0][0]']               
                                                                                                  
 bidirectional_531 (Bidirection  (None, 128)         35840       ['conv1d_265[0][0]']             
 al)                                                                                              
                                                                                                  
 dropout_528 (Dropout)          (None, 128)          0           ['dense_528[0][0]']              
                                                                                                  
 dropout_529 (Dropout)          (None, 128)          0           ['dense_529[0][0]']              
                                                                                                  
 dropout_530 (Dropout)          (None, 128)          0           ['dense_530[0][0]']              
                                                                                                  
 dropout_531 (Dropout)          (None, 128)          0           ['bidirectional_531[0][0]']      
                                                                                                  
 concatenate_132 (Concatenate)  (None, 512)          0           ['dropout_528[0][0]',            
                                                                  'dropout_529[0][0]',            
                                                                  'dropout_530[0][0]',            
                                                                  'dropout_531[0][0]']            
                                                                                                  
 dense_531 (Dense)              (None, 1)            513         ['concatenate_132[0][0]']        
                                                                                                  
==================================================================================================
Total params: 44,467
Trainable params: 44,467
Non-trainable params: 0
__________________________________________________________________________________________________
…
