…
 bidirectional_4 (Bidirectional  (None, None, 10)    280         ['input_5[0][0]']                
 )                                                                                                
                                                                                                  
 bidirectional_5 (Bidirectional  (None, None, 10)    280         ['input_6[0][0]']                
 )                                                                                                
                                                                                                  
 lstm_13 (LSTM)                 (None, 5)            320         ['bidirectional_6[0][0]']        
                                                                                                  
 lstm_7 (LSTM)                  (None, 5)            320         ['bidirectional_3[0][0]']        
                                                                                                  
 lstm_9 (LSTM)                  (None, 5)            320         ['bidirectional_4[0][0]']        
                                                                                                  
 lstm_11 (LSTM)                 (None, 5)            320         ['bidirectional_5[0][0]']        
                                                                                                  
 dense_7 (Dense)                (None, 15)           90          ['lstm_13[0][0]']                
                                                                                                  
 dense_4 (Dense)                (None, 15)           90          ['lstm_7[0][0]']                 
                                                                                                  
 dense_5 (Dense)                (None, 15)           90          ['lstm_9[0][0]']                 
                                                                                                  
 dense_6 (Dense)                (None, 15)           90          ['lstm_11[0][0]']                
                                                                                                  
 dropout_6 (Dropout)            (None, 15)           0           ['dense_7[0][0]']                
                                                                                                  
 dropout_3 (Dropout)            (None, 15)           0           ['dense_4[0][0]']                
                                                                                                  
 dropout_4 (Dropout)            (None, 15)           0           ['dense_5[0][0]']                
                                                                                                  
 dropout_5 (Dropout)            (None, 15)           0           ['dense_6[0][0]']                
                                                                                                  
 lambda (Lambda)                (1, 15)              0           ['dropout_6[0][0]']              
                                                                                                  
 concatenate_1 (Concatenate)    (1, 60)              0           ['dropout_3[0][0]',              
                                                                  'dropout_4[0][0]',              
                                                                  'dropout_5[0][0]',              
                                                                  'lambda[0][0]']                 
                                                                                                  
 dense_8 (Dense)                (1, 1)               61          ['concatenate_1[0][0]']          
                                                                                                  
==================================================================================================
Total params: 2,821
Trainable params: 2,821
Non-trainable params: 0
__________________________________________________________________________________________________
…
