…
 bidirectional_39 (Bidirectiona  (None, None, 10)    280         ['input_40[0][0]']               
 l)                                                                                               
                                                                                                  
 bidirectional_40 (Bidirectiona  (None, None, 10)    280         ['input_41[0][0]']               
 l)                                                                                               
                                                                                                  
 lstm_83 (LSTM)                 (None, 5)            320         ['bidirectional_41[0][0]']       
                                                                                                  
 lstm_77 (LSTM)                 (None, 5)            320         ['bidirectional_38[0][0]']       
                                                                                                  
 lstm_79 (LSTM)                 (None, 5)            320         ['bidirectional_39[0][0]']       
                                                                                                  
 lstm_81 (LSTM)                 (None, 5)            320         ['bidirectional_40[0][0]']       
                                                                                                  
 dense_52 (Dense)               (None, 15)           90          ['lstm_83[0][0]']                
                                                                                                  
 dense_49 (Dense)               (None, 15)           90          ['lstm_77[0][0]']                
                                                                                                  
 dense_50 (Dense)               (None, 15)           90          ['lstm_79[0][0]']                
                                                                                                  
 dense_51 (Dense)               (None, 15)           90          ['lstm_81[0][0]']                
                                                                                                  
 dropout_41 (Dropout)           (None, 15)           0           ['dense_52[0][0]']               
                                                                                                  
 dropout_38 (Dropout)           (None, 15)           0           ['dense_49[0][0]']               
                                                                                                  
 dropout_39 (Dropout)           (None, 15)           0           ['dense_50[0][0]']               
                                                                                                  
 dropout_40 (Dropout)           (None, 15)           0           ['dense_51[0][0]']               
                                                                                                  
 lambda_5 (Lambda)              (1, 15)              0           ['dropout_41[0][0]']             
                                                                                                  
 concatenate_11 (Concatenate)   (1, 60)              0           ['dropout_38[0][0]',             
                                                                  'dropout_39[0][0]',             
                                                                  'dropout_40[0][0]',             
                                                                  'lambda_5[0][0]']               
                                                                                                  
 dense_53 (Dense)               (1, 1)               61          ['concatenate_11[0][0]']         
                                                                                                  
==================================================================================================
Total params: 2,821
Trainable params: 2,821
Non-trainable params: 0
__________________________________________________________________________________________________
…
