…
 bidirectional_74 (Bidirectiona  (None, None, 10)    280         ['input_75[0][0]']               
 l)                                                                                               
                                                                                                  
 bidirectional_75 (Bidirectiona  (None, None, 10)    280         ['input_76[0][0]']               
 l)                                                                                               
                                                                                                  
 lstm_153 (LSTM)                (None, 5)            320         ['bidirectional_76[0][0]']       
                                                                                                  
 lstm_147 (LSTM)                (None, 5)            320         ['bidirectional_73[0][0]']       
                                                                                                  
 lstm_149 (LSTM)                (None, 5)            320         ['bidirectional_74[0][0]']       
                                                                                                  
 lstm_151 (LSTM)                (None, 5)            320         ['bidirectional_75[0][0]']       
                                                                                                  
 dense_97 (Dense)               (None, 15)           90          ['lstm_153[0][0]']               
                                                                                                  
 dense_94 (Dense)               (None, 15)           90          ['lstm_147[0][0]']               
                                                                                                  
 dense_95 (Dense)               (None, 15)           90          ['lstm_149[0][0]']               
                                                                                                  
 dense_96 (Dense)               (None, 15)           90          ['lstm_151[0][0]']               
                                                                                                  
 dropout_76 (Dropout)           (None, 15)           0           ['dense_97[0][0]']               
                                                                                                  
 dropout_73 (Dropout)           (None, 15)           0           ['dense_94[0][0]']               
                                                                                                  
 dropout_74 (Dropout)           (None, 15)           0           ['dense_95[0][0]']               
                                                                                                  
 dropout_75 (Dropout)           (None, 15)           0           ['dense_96[0][0]']               
                                                                                                  
 lambda_10 (Lambda)             (1, 15)              0           ['dropout_76[0][0]']             
                                                                                                  
 concatenate_21 (Concatenate)   (1, 60)              0           ['dropout_73[0][0]',             
                                                                  'dropout_74[0][0]',             
                                                                  'dropout_75[0][0]',             
                                                                  'lambda_10[0][0]']              
                                                                                                  
 dense_98 (Dense)               (1, 1)               61          ['concatenate_21[0][0]']         
                                                                                                  
==================================================================================================
Total params: 2,821
Trainable params: 2,821
Non-trainable params: 0
__________________________________________________________________________________________________
…
