…
 bidirectional_109 (Bidirection  (None, None, 10)    280         ['input_110[0][0]']              
 al)                                                                                              
                                                                                                  
 bidirectional_110 (Bidirection  (None, None, 10)    280         ['input_111[0][0]']              
 al)                                                                                              
                                                                                                  
 lstm_223 (LSTM)                (None, 5)            320         ['bidirectional_111[0][0]']      
                                                                                                  
 lstm_217 (LSTM)                (None, 5)            320         ['bidirectional_108[0][0]']      
                                                                                                  
 lstm_219 (LSTM)                (None, 5)            320         ['bidirectional_109[0][0]']      
                                                                                                  
 lstm_221 (LSTM)                (None, 5)            320         ['bidirectional_110[0][0]']      
                                                                                                  
 dense_142 (Dense)              (None, 15)           90          ['lstm_223[0][0]']               
                                                                                                  
 dense_139 (Dense)              (None, 15)           90          ['lstm_217[0][0]']               
                                                                                                  
 dense_140 (Dense)              (None, 15)           90          ['lstm_219[0][0]']               
                                                                                                  
 dense_141 (Dense)              (None, 15)           90          ['lstm_221[0][0]']               
                                                                                                  
 dropout_111 (Dropout)          (None, 15)           0           ['dense_142[0][0]']              
                                                                                                  
 dropout_108 (Dropout)          (None, 15)           0           ['dense_139[0][0]']              
                                                                                                  
 dropout_109 (Dropout)          (None, 15)           0           ['dense_140[0][0]']              
                                                                                                  
 dropout_110 (Dropout)          (None, 15)           0           ['dense_141[0][0]']              
                                                                                                  
 lambda_15 (Lambda)             (1, 15)              0           ['dropout_111[0][0]']            
                                                                                                  
 concatenate_31 (Concatenate)   (1, 60)              0           ['dropout_108[0][0]',            
                                                                  'dropout_109[0][0]',            
                                                                  'dropout_110[0][0]',            
                                                                  'lambda_15[0][0]']              
                                                                                                  
 dense_143 (Dense)              (1, 1)               61          ['concatenate_31[0][0]']         
                                                                                                  
==================================================================================================
Total params: 2,821
Trainable params: 2,821
Non-trainable params: 0
__________________________________________________________________________________________________
…
