…
 bidirectional_144 (Bidirection  (None, None, 10)    280         ['input_145[0][0]']              
 al)                                                                                              
                                                                                                  
 bidirectional_145 (Bidirection  (None, None, 10)    280         ['input_146[0][0]']              
 al)                                                                                              
                                                                                                  
 lstm_293 (LSTM)                (None, 5)            320         ['bidirectional_146[0][0]']      
                                                                                                  
 lstm_287 (LSTM)                (None, 5)            320         ['bidirectional_143[0][0]']      
                                                                                                  
 lstm_289 (LSTM)                (None, 5)            320         ['bidirectional_144[0][0]']      
                                                                                                  
 lstm_291 (LSTM)                (None, 5)            320         ['bidirectional_145[0][0]']      
                                                                                                  
 dense_187 (Dense)              (None, 15)           90          ['lstm_293[0][0]']               
                                                                                                  
 dense_184 (Dense)              (None, 15)           90          ['lstm_287[0][0]']               
                                                                                                  
 dense_185 (Dense)              (None, 15)           90          ['lstm_289[0][0]']               
                                                                                                  
 dense_186 (Dense)              (None, 15)           90          ['lstm_291[0][0]']               
                                                                                                  
 dropout_146 (Dropout)          (None, 15)           0           ['dense_187[0][0]']              
                                                                                                  
 dropout_143 (Dropout)          (None, 15)           0           ['dense_184[0][0]']              
                                                                                                  
 dropout_144 (Dropout)          (None, 15)           0           ['dense_185[0][0]']              
                                                                                                  
 dropout_145 (Dropout)          (None, 15)           0           ['dense_186[0][0]']              
                                                                                                  
 lambda_20 (Lambda)             (1, 15)              0           ['dropout_146[0][0]']            
                                                                                                  
 concatenate_41 (Concatenate)   (1, 60)              0           ['dropout_143[0][0]',            
                                                                  'dropout_144[0][0]',            
                                                                  'dropout_145[0][0]',            
                                                                  'lambda_20[0][0]']              
                                                                                                  
 dense_188 (Dense)              (1, 1)               61          ['concatenate_41[0][0]']         
                                                                                                  
==================================================================================================
Total params: 2,821
Trainable params: 2,821
Non-trainable params: 0
__________________________________________________________________________________________________
…
