…
 bidirectional_553 (Bidirection  (None, None, 10)    280         ['masking_553[0][0]']            
 al)                                                                                              
                                                                                                  
 bidirectional_554 (Bidirection  (None, None, 10)    280         ['masking_554[0][0]']            
 al)                                                                                              
                                                                                                  
 conv1d_276 (Conv1D)            (None, 25, 5)        1905        ['masking_555[0][0]']            
                                                                                                  
 lstm_967 (LSTM)                (None, 5)            320         ['bidirectional_552[0][0]']      
                                                                                                  
 lstm_969 (LSTM)                (None, 5)            320         ['bidirectional_553[0][0]']      
                                                                                                  
 lstm_971 (LSTM)                (None, 5)            320         ['bidirectional_554[0][0]']      
                                                                                                  
 conv1d_277 (Conv1D)            (None, 25, 5)        105         ['conv1d_276[0][0]']             
                                                                                                  
 dense_552 (Dense)              (None, 64)           384         ['lstm_967[0][0]']               
                                                                                                  
 dense_553 (Dense)              (None, 64)           384         ['lstm_969[0][0]']               
                                                                                                  
 dense_554 (Dense)              (None, 64)           384         ['lstm_971[0][0]']               
                                                                                                  
 bidirectional_555 (Bidirection  (None, 64)          9728        ['conv1d_277[0][0]']             
 al)                                                                                              
                                                                                                  
 dropout_552 (Dropout)          (None, 64)           0           ['dense_552[0][0]']              
                                                                                                  
 dropout_553 (Dropout)          (None, 64)           0           ['dense_553[0][0]']              
                                                                                                  
 dropout_554 (Dropout)          (None, 64)           0           ['dense_554[0][0]']              
                                                                                                  
 dropout_555 (Dropout)          (None, 64)           0           ['bidirectional_555[0][0]']      
                                                                                                  
 concatenate_138 (Concatenate)  (None, 256)          0           ['dropout_552[0][0]',            
                                                                  'dropout_553[0][0]',            
                                                                  'dropout_554[0][0]',            
                                                                  'dropout_555[0][0]']            
                                                                                                  
 dense_555 (Dense)              (None, 1)            257         ['concatenate_138[0][0]']        
                                                                                                  
==================================================================================================
Total params: 14,947
Trainable params: 14,947
Non-trainable params: 0
__________________________________________________________________________________________________
…
 bidirectional_573 (Bidirection  (None, None, 10)    280         ['masking_573[0][0]']            
 al)                                                                                              
                                                                                                  
 bidirectional_574 (Bidirection  (None, None, 10)    280         ['masking_574[0][0]']            
 al)                                                                                              
                                                                                                  
 conv1d_286 (Conv1D)            (None, 25, 5)        2855        ['masking_575[0][0]']            
                                                                                                  
 lstm_1002 (LSTM)               (None, 5)            320         ['bidirectional_572[0][0]']      
                                                                                                  
 lstm_1004 (LSTM)               (None, 5)            320         ['bidirectional_573[0][0]']      
                                                                                                  
 lstm_1006 (LSTM)               (None, 5)            320         ['bidirectional_574[0][0]']      
                                                                                                  
 conv1d_287 (Conv1D)            (None, 25, 5)        155         ['conv1d_286[0][0]']             
                                                                                                  
 dense_572 (Dense)              (None, 64)           384         ['lstm_1002[0][0]']              
                                                                                                  
 dense_573 (Dense)              (None, 64)           384         ['lstm_1004[0][0]']              
                                                                                                  
 dense_574 (Dense)              (None, 64)           384         ['lstm_1006[0][0]']              
                                                                                                  
 bidirectional_575 (Bidirection  (None, 64)          9728        ['conv1d_287[0][0]']             
 al)                                                                                              
                                                                                                  
 dropout_572 (Dropout)          (None, 64)           0           ['dense_572[0][0]']              
                                                                                                  
 dropout_573 (Dropout)          (None, 64)           0           ['dense_573[0][0]']              
                                                                                                  
 dropout_574 (Dropout)          (None, 64)           0           ['dense_574[0][0]']              
                                                                                                  
 dropout_575 (Dropout)          (None, 64)           0           ['bidirectional_575[0][0]']      
                                                                                                  
 concatenate_143 (Concatenate)  (None, 256)          0           ['dropout_572[0][0]',            
                                                                  'dropout_573[0][0]',            
                                                                  'dropout_574[0][0]',            
                                                                  'dropout_575[0][0]']            
                                                                                                  
 dense_575 (Dense)              (None, 1)            257         ['concatenate_143[0][0]']        
                                                                                                  
==================================================================================================
Total params: 15,947
Trainable params: 15,947
Non-trainable params: 0
__________________________________________________________________________________________________
…
 bidirectional_593 (Bidirection  (None, None, 10)    280         ['masking_593[0][0]']            
 al)                                                                                              
                                                                                                  
 bidirectional_594 (Bidirection  (None, None, 10)    280         ['masking_594[0][0]']            
 al)                                                                                              
                                                                                                  
 conv1d_296 (Conv1D)            (None, 25, 5)        3805        ['masking_595[0][0]']            
                                                                                                  
 lstm_1037 (LSTM)               (None, 5)            320         ['bidirectional_592[0][0]']      
                                                                                                  
 lstm_1039 (LSTM)               (None, 5)            320         ['bidirectional_593[0][0]']      
                                                                                                  
 lstm_1041 (LSTM)               (None, 5)            320         ['bidirectional_594[0][0]']      
                                                                                                  
 conv1d_297 (Conv1D)            (None, 25, 5)        205         ['conv1d_296[0][0]']             
                                                                                                  
 dense_592 (Dense)              (None, 64)           384         ['lstm_1037[0][0]']              
                                                                                                  
 dense_593 (Dense)              (None, 64)           384         ['lstm_1039[0][0]']              
                                                                                                  
 dense_594 (Dense)              (None, 64)           384         ['lstm_1041[0][0]']              
                                                                                                  
 bidirectional_595 (Bidirection  (None, 64)          9728        ['conv1d_297[0][0]']             
 al)                                                                                              
                                                                                                  
 dropout_592 (Dropout)          (None, 64)           0           ['dense_592[0][0]']              
                                                                                                  
 dropout_593 (Dropout)          (None, 64)           0           ['dense_593[0][0]']              
                                                                                                  
 dropout_594 (Dropout)          (None, 64)           0           ['dense_594[0][0]']              
                                                                                                  
 dropout_595 (Dropout)          (None, 64)           0           ['bidirectional_595[0][0]']      
                                                                                                  
 concatenate_148 (Concatenate)  (None, 256)          0           ['dropout_592[0][0]',            
                                                                  'dropout_593[0][0]',            
                                                                  'dropout_594[0][0]',            
                                                                  'dropout_595[0][0]']            
                                                                                                  
 dense_595 (Dense)              (None, 1)            257         ['concatenate_148[0][0]']        
                                                                                                  
==================================================================================================
Total params: 16,947
Trainable params: 16,947
Non-trainable params: 0
__________________________________________________________________________________________________
…
 bidirectional_613 (Bidirection  (None, None, 10)    280         ['masking_613[0][0]']            
 al)                                                                                              
                                                                                                  
 bidirectional_614 (Bidirection  (None, None, 10)    280         ['masking_614[0][0]']            
 al)                                                                                              
                                                                                                  
 conv1d_306 (Conv1D)            (None, 25, 5)        1905        ['masking_615[0][0]']            
                                                                                                  
 lstm_1072 (LSTM)               (None, 5)            320         ['bidirectional_612[0][0]']      
                                                                                                  
 lstm_1074 (LSTM)               (None, 5)            320         ['bidirectional_613[0][0]']      
                                                                                                  
 lstm_1076 (LSTM)               (None, 5)            320         ['bidirectional_614[0][0]']      
                                                                                                  
 conv1d_307 (Conv1D)            (None, 25, 5)        105         ['conv1d_306[0][0]']             
                                                                                                  
 dense_612 (Dense)              (None, 96)           576         ['lstm_1072[0][0]']              
                                                                                                  
 dense_613 (Dense)              (None, 96)           576         ['lstm_1074[0][0]']              
                                                                                                  
 dense_614 (Dense)              (None, 96)           576         ['lstm_1076[0][0]']              
                                                                                                  
 bidirectional_615 (Bidirection  (None, 96)          20736       ['conv1d_307[0][0]']             
 al)                                                                                              
                                                                                                  
 dropout_612 (Dropout)          (None, 96)           0           ['dense_612[0][0]']              
                                                                                                  
 dropout_613 (Dropout)          (None, 96)           0           ['dense_613[0][0]']              
                                                                                                  
 dropout_614 (Dropout)          (None, 96)           0           ['dense_614[0][0]']              
                                                                                                  
 dropout_615 (Dropout)          (None, 96)           0           ['bidirectional_615[0][0]']      
                                                                                                  
 concatenate_153 (Concatenate)  (None, 384)          0           ['dropout_612[0][0]',            
                                                                  'dropout_613[0][0]',            
                                                                  'dropout_614[0][0]',            
                                                                  'dropout_615[0][0]']            
                                                                                                  
 dense_615 (Dense)              (None, 1)            385         ['concatenate_153[0][0]']        
                                                                                                  
==================================================================================================
Total params: 26,659
Trainable params: 26,659
Non-trainable params: 0
__________________________________________________________________________________________________
…
 bidirectional_633 (Bidirection  (None, None, 10)    280         ['masking_633[0][0]']            
 al)                                                                                              
                                                                                                  
 bidirectional_634 (Bidirection  (None, None, 10)    280         ['masking_634[0][0]']            
 al)                                                                                              
                                                                                                  
 conv1d_316 (Conv1D)            (None, 25, 5)        2855        ['masking_635[0][0]']            
                                                                                                  
 lstm_1107 (LSTM)               (None, 5)            320         ['bidirectional_632[0][0]']      
                                                                                                  
 lstm_1109 (LSTM)               (None, 5)            320         ['bidirectional_633[0][0]']      
                                                                                                  
 lstm_1111 (LSTM)               (None, 5)            320         ['bidirectional_634[0][0]']      
                                                                                                  
 conv1d_317 (Conv1D)            (None, 25, 5)        155         ['conv1d_316[0][0]']             
                                                                                                  
 dense_632 (Dense)              (None, 96)           576         ['lstm_1107[0][0]']              
                                                                                                  
 dense_633 (Dense)              (None, 96)           576         ['lstm_1109[0][0]']              
                                                                                                  
 dense_634 (Dense)              (None, 96)           576         ['lstm_1111[0][0]']              
                                                                                                  
 bidirectional_635 (Bidirection  (None, 96)          20736       ['conv1d_317[0][0]']             
 al)                                                                                              
                                                                                                  
 dropout_632 (Dropout)          (None, 96)           0           ['dense_632[0][0]']              
                                                                                                  
 dropout_633 (Dropout)          (None, 96)           0           ['dense_633[0][0]']              
                                                                                                  
 dropout_634 (Dropout)          (None, 96)           0           ['dense_634[0][0]']              
                                                                                                  
 dropout_635 (Dropout)          (None, 96)           0           ['bidirectional_635[0][0]']      
                                                                                                  
 concatenate_158 (Concatenate)  (None, 384)          0           ['dropout_632[0][0]',            
                                                                  'dropout_633[0][0]',            
                                                                  'dropout_634[0][0]',            
                                                                  'dropout_635[0][0]']            
                                                                                                  
 dense_635 (Dense)              (None, 1)            385         ['concatenate_158[0][0]']        
                                                                                                  
==================================================================================================
Total params: 27,659
Trainable params: 27,659
Non-trainable params: 0
__________________________________________________________________________________________________
…
 bidirectional_653 (Bidirection  (None, None, 10)    280         ['masking_653[0][0]']            
 al)                                                                                              
                                                                                                  
 bidirectional_654 (Bidirection  (None, None, 10)    280         ['masking_654[0][0]']            
 al)                                                                                              
                                                                                                  
 conv1d_326 (Conv1D)            (None, 25, 5)        3805        ['masking_655[0][0]']            
                                                                                                  
 lstm_1142 (LSTM)               (None, 5)            320         ['bidirectional_652[0][0]']      
                                                                                                  
 lstm_1144 (LSTM)               (None, 5)            320         ['bidirectional_653[0][0]']      
                                                                                                  
 lstm_1146 (LSTM)               (None, 5)            320         ['bidirectional_654[0][0]']      
                                                                                                  
 conv1d_327 (Conv1D)            (None, 25, 5)        205         ['conv1d_326[0][0]']             
                                                                                                  
 dense_652 (Dense)              (None, 96)           576         ['lstm_1142[0][0]']              
                                                                                                  
 dense_653 (Dense)              (None, 96)           576         ['lstm_1144[0][0]']              
                                                                                                  
 dense_654 (Dense)              (None, 96)           576         ['lstm_1146[0][0]']              
                                                                                                  
 bidirectional_655 (Bidirection  (None, 96)          20736       ['conv1d_327[0][0]']             
 al)                                                                                              
                                                                                                  
 dropout_652 (Dropout)          (None, 96)           0           ['dense_652[0][0]']              
                                                                                                  
 dropout_653 (Dropout)          (None, 96)           0           ['dense_653[0][0]']              
                                                                                                  
 dropout_654 (Dropout)          (None, 96)           0           ['dense_654[0][0]']              
                                                                                                  
 dropout_655 (Dropout)          (None, 96)           0           ['bidirectional_655[0][0]']      
                                                                                                  
 concatenate_163 (Concatenate)  (None, 384)          0           ['dropout_652[0][0]',            
                                                                  'dropout_653[0][0]',            
                                                                  'dropout_654[0][0]',            
                                                                  'dropout_655[0][0]']            
                                                                                                  
 dense_655 (Dense)              (None, 1)            385         ['concatenate_163[0][0]']        
                                                                                                  
==================================================================================================
Total params: 28,659
Trainable params: 28,659
Non-trainable params: 0
__________________________________________________________________________________________________
…
 bidirectional_673 (Bidirection  (None, None, 10)    280         ['masking_673[0][0]']            
 al)                                                                                              
                                                                                                  
 bidirectional_674 (Bidirection  (None, None, 10)    280         ['masking_674[0][0]']            
 al)                                                                                              
                                                                                                  
 conv1d_336 (Conv1D)            (None, 25, 5)        1905        ['masking_675[0][0]']            
                                                                                                  
 lstm_1177 (LSTM)               (None, 5)            320         ['bidirectional_672[0][0]']      
                                                                                                  
 lstm_1179 (LSTM)               (None, 5)            320         ['bidirectional_673[0][0]']      
                                                                                                  
 lstm_1181 (LSTM)               (None, 5)            320         ['bidirectional_674[0][0]']      
                                                                                                  
 conv1d_337 (Conv1D)            (None, 25, 5)        105         ['conv1d_336[0][0]']             
                                                                                                  
 dense_672 (Dense)              (None, 128)          768         ['lstm_1177[0][0]']              
                                                                                                  
 dense_673 (Dense)              (None, 128)          768         ['lstm_1179[0][0]']              
                                                                                                  
 dense_674 (Dense)              (None, 128)          768         ['lstm_1181[0][0]']              
                                                                                                  
 bidirectional_675 (Bidirection  (None, 128)         35840       ['conv1d_337[0][0]']             
 al)                                                                                              
                                                                                                  
 dropout_672 (Dropout)          (None, 128)          0           ['dense_672[0][0]']              
                                                                                                  
 dropout_673 (Dropout)          (None, 128)          0           ['dense_673[0][0]']              
                                                                                                  
 dropout_674 (Dropout)          (None, 128)          0           ['dense_674[0][0]']              
                                                                                                  
 dropout_675 (Dropout)          (None, 128)          0           ['bidirectional_675[0][0]']      
                                                                                                  
 concatenate_168 (Concatenate)  (None, 512)          0           ['dropout_672[0][0]',            
                                                                  'dropout_673[0][0]',            
                                                                  'dropout_674[0][0]',            
                                                                  'dropout_675[0][0]']            
                                                                                                  
 dense_675 (Dense)              (None, 1)            513         ['concatenate_168[0][0]']        
                                                                                                  
==================================================================================================
Total params: 42,467
Trainable params: 42,467
Non-trainable params: 0
__________________________________________________________________________________________________
…
 bidirectional_693 (Bidirection  (None, None, 10)    280         ['masking_693[0][0]']            
 al)                                                                                              
                                                                                                  
 bidirectional_694 (Bidirection  (None, None, 10)    280         ['masking_694[0][0]']            
 al)                                                                                              
                                                                                                  
 conv1d_346 (Conv1D)            (None, 25, 5)        2855        ['masking_695[0][0]']            
                                                                                                  
 lstm_1212 (LSTM)               (None, 5)            320         ['bidirectional_692[0][0]']      
                                                                                                  
 lstm_1214 (LSTM)               (None, 5)            320         ['bidirectional_693[0][0]']      
                                                                                                  
 lstm_1216 (LSTM)               (None, 5)            320         ['bidirectional_694[0][0]']      
                                                                                                  
 conv1d_347 (Conv1D)            (None, 25, 5)        155         ['conv1d_346[0][0]']             
                                                                                                  
 dense_692 (Dense)              (None, 128)          768         ['lstm_1212[0][0]']              
                                                                                                  
 dense_693 (Dense)              (None, 128)          768         ['lstm_1214[0][0]']              
                                                                                                  
 dense_694 (Dense)              (None, 128)          768         ['lstm_1216[0][0]']              
                                                                                                  
 bidirectional_695 (Bidirection  (None, 128)         35840       ['conv1d_347[0][0]']             
 al)                                                                                              
                                                                                                  
 dropout_692 (Dropout)          (None, 128)          0           ['dense_692[0][0]']              
                                                                                                  
 dropout_693 (Dropout)          (None, 128)          0           ['dense_693[0][0]']              
                                                                                                  
 dropout_694 (Dropout)          (None, 128)          0           ['dense_694[0][0]']              
                                                                                                  
 dropout_695 (Dropout)          (None, 128)          0           ['bidirectional_695[0][0]']      
                                                                                                  
 concatenate_173 (Concatenate)  (None, 512)          0           ['dropout_692[0][0]',            
                                                                  'dropout_693[0][0]',            
                                                                  'dropout_694[0][0]',            
                                                                  'dropout_695[0][0]']            
                                                                                                  
 dense_695 (Dense)              (None, 1)            513         ['concatenate_173[0][0]']        
                                                                                                  
==================================================================================================
Total params: 43,467
Trainable params: 43,467
Non-trainable params: 0
__________________________________________________________________________________________________
…
 bidirectional_713 (Bidirection  (None, None, 10)    280         ['masking_713[0][0]']            
 al)                                                                                              
                                                                                                  
 bidirectional_714 (Bidirection  (None, None, 10)    280         ['masking_714[0][0]']            
 al)                                                                                              
                                                                                                  
 conv1d_356 (Conv1D)            (None, 25, 5)        3805        ['masking_715[0][0]']            
                                                                                                  
 lstm_1247 (LSTM)               (None, 5)            320         ['bidirectional_712[0][0]']      
                                                                                                  
 lstm_1249 (LSTM)               (None, 5)            320         ['bidirectional_713[0][0]']      
                                                                                                  
 lstm_1251 (LSTM)               (None, 5)            320         ['bidirectional_714[0][0]']      
                                                                                                  
 conv1d_357 (Conv1D)            (None, 25, 5)        205         ['conv1d_356[0][0]']             
                                                                                                  
 dense_712 (Dense)              (None, 128)          768         ['lstm_1247[0][0]']              
                                                                                                  
 dense_713 (Dense)              (None, 128)          768         ['lstm_1249[0][0]']              
                                                                                                  
 dense_714 (Dense)              (None, 128)          768         ['lstm_1251[0][0]']              
                                                                                                  
 bidirectional_715 (Bidirection  (None, 128)         35840       ['conv1d_357[0][0]']             
 al)                                                                                              
                                                                                                  
 dropout_712 (Dropout)          (None, 128)          0           ['dense_712[0][0]']              
                                                                                                  
 dropout_713 (Dropout)          (None, 128)          0           ['dense_713[0][0]']              
                                                                                                  
 dropout_714 (Dropout)          (None, 128)          0           ['dense_714[0][0]']              
                                                                                                  
 dropout_715 (Dropout)          (None, 128)          0           ['bidirectional_715[0][0]']      
                                                                                                  
 concatenate_178 (Concatenate)  (None, 512)          0           ['dropout_712[0][0]',            
                                                                  'dropout_713[0][0]',            
                                                                  'dropout_714[0][0]',            
                                                                  'dropout_715[0][0]']            
                                                                                                  
 dense_715 (Dense)              (None, 1)            513         ['concatenate_178[0][0]']        
                                                                                                  
==================================================================================================
Total params: 44,467
Trainable params: 44,467
Non-trainable params: 0
__________________________________________________________________________________________________
…
