…
                                                                                                  
 bidirectional (Bidirectional)  (None, None, 10)     280         ['input_1[0][0]']                
                                                                                                  
 bidirectional_1 (Bidirectional  (None, None, 10)    280         ['input_2[0][0]']                
 )                                                                                                
                                                                                                  
 lstm_1 (LSTM)                  (None, 5)            320         ['bidirectional[0][0]']          
                                                                                                  
 lstm_3 (LSTM)                  (None, 5)            320         ['bidirectional_1[0][0]']        
                                                                                                  
 dense (Dense)                  (None, 15)           90          ['lstm_1[0][0]']                 
                                                                                                  
 dense_1 (Dense)                (None, 15)           90          ['lstm_3[0][0]']                 
                                                                                                  
 dropout (Dropout)              (None, 15)           0           ['dense[0][0]']                  
                                                                                                  
 dropout_1 (Dropout)            (None, 15)           0           ['dense_1[0][0]']                
                                                                                                  
 concatenate (Concatenate)      (None, 30)           0           ['dropout[0][0]',                
                                                                  'dropout_1[0][0]']              
                                                                                                  
 dense_2 (Dense)                (None, 1)            31          ['concatenate[0][0]']            
                                                                                                  
==================================================================================================
Total params: 1,411
Trainable params: 1,411
Non-trainable params: 0
__________________________________________________________________________________________________
…
 bidirectional_16 (Bidirectiona  (None, None, 10)    280         ['input_17[0][0]']               
 l)                                                                                               
                                                                                                  
 bidirectional_17 (Bidirectiona  (None, None, 10)    280         ['input_18[0][0]']               
 l)                                                                                               
                                                                                                  
 lstm_25 (LSTM)                 (None, 5)            320         ['bidirectional_12[0][0]']       
                                                                                                  
 lstm_27 (LSTM)                 (None, 5)            320         ['bidirectional_13[0][0]']       
                                                                                                  
 lstm_29 (LSTM)                 (None, 5)            320         ['bidirectional_14[0][0]']       
                                                                                                  
 lstm_31 (LSTM)                 (None, 5)            320         ['bidirectional_15[0][0]']       
                                                                                                  
 lstm_33 (LSTM)                 (None, 5)            320         ['bidirectional_16[0][0]']       
                                                                                                  
 lstm_35 (LSTM)                 (None, 5)            320         ['bidirectional_17[0][0]']       
                                                                                                  
 dense_18 (Dense)               (None, 15)           90          ['lstm_25[0][0]']                
                                                                                                  
 dense_19 (Dense)               (None, 15)           90          ['lstm_27[0][0]']                
                                                                                                  
 dense_20 (Dense)               (None, 15)           90          ['lstm_29[0][0]']                
                                                                                                  
 dense_21 (Dense)               (None, 15)           90          ['lstm_31[0][0]']                
                                                                                                  
 dense_22 (Dense)               (None, 15)           90          ['lstm_33[0][0]']                
                                                                                                  
 dense_23 (Dense)               (None, 15)           90          ['lstm_35[0][0]']                
                                                                                                  
 dropout_12 (Dropout)           (None, 15)           0           ['dense_18[0][0]']               
                                                                                                  
 dropout_13 (Dropout)           (None, 15)           0           ['dense_19[0][0]']               
                                                                                                  
 dropout_14 (Dropout)           (None, 15)           0           ['dense_20[0][0]']               
                                                                                                  
 dropout_15 (Dropout)           (None, 15)           0           ['dense_21[0][0]']               
                                                                                                  
 dropout_16 (Dropout)           (None, 15)           0           ['dense_22[0][0]']               
                                                                                                  
 dropout_17 (Dropout)           (None, 15)           0           ['dense_23[0][0]']               
                                                                                                  
 concatenate_6 (Concatenate)    (None, 30)           0           ['dropout_12[0][0]',             
                                                                  'dropout_13[0][0]']             
                                                                                                  
 concatenate_7 (Concatenate)    (None, 30)           0           ['dropout_14[0][0]',             
                                                                  'dropout_15[0][0]']             
                                                                                                  
 concatenate_8 (Concatenate)    (None, 30)           0           ['dropout_16[0][0]',             
                                                                  'dropout_17[0][0]']             
                                                                                                  
 concatenate_9 (Concatenate)    (None, 90)           0           ['concatenate_6[0][0]',          
                                                                  'concatenate_7[0][0]',          
                                                                  'concatenate_8[0][0]']          
                                                                                                  
 dense_24 (Dense)               (None, 1)            91          ['concatenate_9[0][0]']          
                                                                                                  
==================================================================================================
Total params: 4,231
Trainable params: 4,231
Non-trainable params: 0
__________________________________________________________________________________________________
…
