…
 bidirectional_24 (Bidirectiona  (None, None, 10)    280         ['input_25[0][0]']               
 l)                                                                                               
                                                                                                  
 bidirectional_25 (Bidirectiona  (None, None, 10)    280         ['input_26[0][0]']               
 l)                                                                                               
                                                                                                  
 lstm_49 (LSTM)                 (None, 5)            320         ['bidirectional_24[0][0]']       
                                                                                                  
 lstm_51 (LSTM)                 (None, 5)            320         ['bidirectional_25[0][0]']       
                                                                                                  
 dense_32 (Dense)               (None, 15)           90          ['lstm_49[0][0]']                
                                                                                                  
 dense_33 (Dense)               (None, 15)           90          ['lstm_51[0][0]']                
                                                                                                  
 dropout_24 (Dropout)           (None, 15)           0           ['dense_32[0][0]']               
                                                                                                  
 dropout_25 (Dropout)           (None, 15)           0           ['dense_33[0][0]']               
                                                                                                  
 concatenate_14 (Concatenate)   (None, 30)           0           ['dropout_24[0][0]',             
                                                                  'dropout_25[0][0]']             
                                                                                                  
 dense_34 (Dense)               (None, 1)            31          ['concatenate_14[0][0]']         
                                                                                                  
==================================================================================================
Total params: 1,411
Trainable params: 1,411
Non-trainable params: 0
__________________________________________________________________________________________________
…
 bidirectional_40 (Bidirectiona  (None, None, 10)    280         ['input_41[0][0]']               
 l)                                                                                               
                                                                                                  
 bidirectional_41 (Bidirectiona  (None, None, 10)    280         ['input_42[0][0]']               
 l)                                                                                               
                                                                                                  
 lstm_73 (LSTM)                 (None, 5)            320         ['bidirectional_36[0][0]']       
                                                                                                  
 lstm_75 (LSTM)                 (None, 5)            320         ['bidirectional_37[0][0]']       
                                                                                                  
 lstm_77 (LSTM)                 (None, 5)            320         ['bidirectional_38[0][0]']       
                                                                                                  
 lstm_79 (LSTM)                 (None, 5)            320         ['bidirectional_39[0][0]']       
                                                                                                  
 lstm_81 (LSTM)                 (None, 5)            320         ['bidirectional_40[0][0]']       
                                                                                                  
 lstm_83 (LSTM)                 (None, 5)            320         ['bidirectional_41[0][0]']       
                                                                                                  
 dense_50 (Dense)               (None, 15)           90          ['lstm_73[0][0]']                
                                                                                                  
 dense_51 (Dense)               (None, 15)           90          ['lstm_75[0][0]']                
                                                                                                  
 dense_52 (Dense)               (None, 15)           90          ['lstm_77[0][0]']                
                                                                                                  
 dense_53 (Dense)               (None, 15)           90          ['lstm_79[0][0]']                
                                                                                                  
 dense_54 (Dense)               (None, 15)           90          ['lstm_81[0][0]']                
                                                                                                  
 dense_55 (Dense)               (None, 15)           90          ['lstm_83[0][0]']                
                                                                                                  
 dropout_36 (Dropout)           (None, 15)           0           ['dense_50[0][0]']               
                                                                                                  
 dropout_37 (Dropout)           (None, 15)           0           ['dense_51[0][0]']               
                                                                                                  
 dropout_38 (Dropout)           (None, 15)           0           ['dense_52[0][0]']               
                                                                                                  
 dropout_39 (Dropout)           (None, 15)           0           ['dense_53[0][0]']               
                                                                                                  
 dropout_40 (Dropout)           (None, 15)           0           ['dense_54[0][0]']               
                                                                                                  
 dropout_41 (Dropout)           (None, 15)           0           ['dense_55[0][0]']               
                                                                                                  
 concatenate_20 (Concatenate)   (None, 30)           0           ['dropout_36[0][0]',             
                                                                  'dropout_37[0][0]']             
                                                                                                  
 concatenate_21 (Concatenate)   (None, 30)           0           ['dropout_38[0][0]',             
                                                                  'dropout_39[0][0]']             
                                                                                                  
 concatenate_22 (Concatenate)   (None, 30)           0           ['dropout_40[0][0]',             
                                                                  'dropout_41[0][0]']             
                                                                                                  
 concatenate_23 (Concatenate)   (None, 90)           0           ['concatenate_20[0][0]',         
                                                                  'concatenate_21[0][0]',         
                                                                  'concatenate_22[0][0]']         
                                                                                                  
 dense_56 (Dense)               (None, 1)            91          ['concatenate_23[0][0]']         
                                                                                                  
==================================================================================================
Total params: 4,231
Trainable params: 4,231
Non-trainable params: 0
__________________________________________________________________________________________________
…
