…
 bidirectional_201 (Bidirection  (None, None, 10)    280         ['masking_201[0][0]']            
 al)                                                                                              
                                                                                                  
 bidirectional_202 (Bidirection  (None, None, 10)    280         ['masking_202[0][0]']            
 al)                                                                                              
                                                                                                  
 conv1d_100 (Conv1D)            (None, 25, 5)        1905        ['masking_203[0][0]']            
                                                                                                  
 lstm_351 (LSTM)                (None, 5)            320         ['bidirectional_200[0][0]']      
                                                                                                  
 lstm_353 (LSTM)                (None, 5)            320         ['bidirectional_201[0][0]']      
                                                                                                  
 lstm_355 (LSTM)                (None, 5)            320         ['bidirectional_202[0][0]']      
                                                                                                  
 conv1d_101 (Conv1D)            (None, 25, 5)        105         ['conv1d_100[0][0]']             
                                                                                                  
 dense_200 (Dense)              (None, 64)           384         ['lstm_351[0][0]']               
                                                                                                  
 dense_201 (Dense)              (None, 64)           384         ['lstm_353[0][0]']               
                                                                                                  
 dense_202 (Dense)              (None, 64)           384         ['lstm_355[0][0]']               
                                                                                                  
 bidirectional_203 (Bidirection  (None, 64)          9728        ['conv1d_101[0][0]']             
 al)                                                                                              
                                                                                                  
 dropout_200 (Dropout)          (None, 64)           0           ['dense_200[0][0]']              
                                                                                                  
 dropout_201 (Dropout)          (None, 64)           0           ['dense_201[0][0]']              
                                                                                                  
 dropout_202 (Dropout)          (None, 64)           0           ['dense_202[0][0]']              
                                                                                                  
 dropout_203 (Dropout)          (None, 64)           0           ['bidirectional_203[0][0]']      
                                                                                                  
 concatenate_50 (Concatenate)   (None, 256)          0           ['dropout_200[0][0]',            
                                                                  'dropout_201[0][0]',            
                                                                  'dropout_202[0][0]',            
                                                                  'dropout_203[0][0]']            
                                                                                                  
 dense_203 (Dense)              (None, 1)            257         ['concatenate_50[0][0]']         
                                                                                                  
==================================================================================================
Total params: 14,947
Trainable params: 14,947
Non-trainable params: 0
__________________________________________________________________________________________________
…
 bidirectional_221 (Bidirection  (None, None, 10)    280         ['masking_221[0][0]']            
 al)                                                                                              
                                                                                                  
 bidirectional_222 (Bidirection  (None, None, 10)    280         ['masking_222[0][0]']            
 al)                                                                                              
                                                                                                  
 conv1d_110 (Conv1D)            (None, 25, 5)        2855        ['masking_223[0][0]']            
                                                                                                  
 lstm_386 (LSTM)                (None, 5)            320         ['bidirectional_220[0][0]']      
                                                                                                  
 lstm_388 (LSTM)                (None, 5)            320         ['bidirectional_221[0][0]']      
                                                                                                  
 lstm_390 (LSTM)                (None, 5)            320         ['bidirectional_222[0][0]']      
                                                                                                  
 conv1d_111 (Conv1D)            (None, 25, 5)        155         ['conv1d_110[0][0]']             
                                                                                                  
 dense_220 (Dense)              (None, 64)           384         ['lstm_386[0][0]']               
                                                                                                  
 dense_221 (Dense)              (None, 64)           384         ['lstm_388[0][0]']               
                                                                                                  
 dense_222 (Dense)              (None, 64)           384         ['lstm_390[0][0]']               
                                                                                                  
 bidirectional_223 (Bidirection  (None, 64)          9728        ['conv1d_111[0][0]']             
 al)                                                                                              
                                                                                                  
 dropout_220 (Dropout)          (None, 64)           0           ['dense_220[0][0]']              
                                                                                                  
 dropout_221 (Dropout)          (None, 64)           0           ['dense_221[0][0]']              
                                                                                                  
 dropout_222 (Dropout)          (None, 64)           0           ['dense_222[0][0]']              
                                                                                                  
 dropout_223 (Dropout)          (None, 64)           0           ['bidirectional_223[0][0]']      
                                                                                                  
 concatenate_55 (Concatenate)   (None, 256)          0           ['dropout_220[0][0]',            
                                                                  'dropout_221[0][0]',            
                                                                  'dropout_222[0][0]',            
                                                                  'dropout_223[0][0]']            
                                                                                                  
 dense_223 (Dense)              (None, 1)            257         ['concatenate_55[0][0]']         
                                                                                                  
==================================================================================================
Total params: 15,947
Trainable params: 15,947
Non-trainable params: 0
__________________________________________________________________________________________________
…
 bidirectional_241 (Bidirection  (None, None, 10)    280         ['masking_241[0][0]']            
 al)                                                                                              
                                                                                                  
 bidirectional_242 (Bidirection  (None, None, 10)    280         ['masking_242[0][0]']            
 al)                                                                                              
                                                                                                  
 conv1d_120 (Conv1D)            (None, 25, 5)        3805        ['masking_243[0][0]']            
                                                                                                  
 lstm_421 (LSTM)                (None, 5)            320         ['bidirectional_240[0][0]']      
                                                                                                  
 lstm_423 (LSTM)                (None, 5)            320         ['bidirectional_241[0][0]']      
                                                                                                  
 lstm_425 (LSTM)                (None, 5)            320         ['bidirectional_242[0][0]']      
                                                                                                  
 conv1d_121 (Conv1D)            (None, 25, 5)        205         ['conv1d_120[0][0]']             
                                                                                                  
 dense_240 (Dense)              (None, 64)           384         ['lstm_421[0][0]']               
                                                                                                  
 dense_241 (Dense)              (None, 64)           384         ['lstm_423[0][0]']               
                                                                                                  
 dense_242 (Dense)              (None, 64)           384         ['lstm_425[0][0]']               
                                                                                                  
 bidirectional_243 (Bidirection  (None, 64)          9728        ['conv1d_121[0][0]']             
 al)                                                                                              
                                                                                                  
 dropout_240 (Dropout)          (None, 64)           0           ['dense_240[0][0]']              
                                                                                                  
 dropout_241 (Dropout)          (None, 64)           0           ['dense_241[0][0]']              
                                                                                                  
 dropout_242 (Dropout)          (None, 64)           0           ['dense_242[0][0]']              
                                                                                                  
 dropout_243 (Dropout)          (None, 64)           0           ['bidirectional_243[0][0]']      
                                                                                                  
 concatenate_60 (Concatenate)   (None, 256)          0           ['dropout_240[0][0]',            
                                                                  'dropout_241[0][0]',            
                                                                  'dropout_242[0][0]',            
                                                                  'dropout_243[0][0]']            
                                                                                                  
 dense_243 (Dense)              (None, 1)            257         ['concatenate_60[0][0]']         
                                                                                                  
==================================================================================================
Total params: 16,947
Trainable params: 16,947
Non-trainable params: 0
__________________________________________________________________________________________________
…
 bidirectional_261 (Bidirection  (None, None, 10)    280         ['masking_261[0][0]']            
 al)                                                                                              
                                                                                                  
 bidirectional_262 (Bidirection  (None, None, 10)    280         ['masking_262[0][0]']            
 al)                                                                                              
                                                                                                  
 conv1d_130 (Conv1D)            (None, 25, 5)        1905        ['masking_263[0][0]']            
                                                                                                  
 lstm_456 (LSTM)                (None, 5)            320         ['bidirectional_260[0][0]']      
                                                                                                  
 lstm_458 (LSTM)                (None, 5)            320         ['bidirectional_261[0][0]']      
                                                                                                  
 lstm_460 (LSTM)                (None, 5)            320         ['bidirectional_262[0][0]']      
                                                                                                  
 conv1d_131 (Conv1D)            (None, 25, 5)        105         ['conv1d_130[0][0]']             
                                                                                                  
 dense_260 (Dense)              (None, 96)           576         ['lstm_456[0][0]']               
                                                                                                  
 dense_261 (Dense)              (None, 96)           576         ['lstm_458[0][0]']               
                                                                                                  
 dense_262 (Dense)              (None, 96)           576         ['lstm_460[0][0]']               
                                                                                                  
 bidirectional_263 (Bidirection  (None, 96)          20736       ['conv1d_131[0][0]']             
 al)                                                                                              
                                                                                                  
 dropout_260 (Dropout)          (None, 96)           0           ['dense_260[0][0]']              
                                                                                                  
 dropout_261 (Dropout)          (None, 96)           0           ['dense_261[0][0]']              
                                                                                                  
 dropout_262 (Dropout)          (None, 96)           0           ['dense_262[0][0]']              
                                                                                                  
 dropout_263 (Dropout)          (None, 96)           0           ['bidirectional_263[0][0]']      
                                                                                                  
 concatenate_65 (Concatenate)   (None, 384)          0           ['dropout_260[0][0]',            
                                                                  'dropout_261[0][0]',            
                                                                  'dropout_262[0][0]',            
                                                                  'dropout_263[0][0]']            
                                                                                                  
 dense_263 (Dense)              (None, 1)            385         ['concatenate_65[0][0]']         
                                                                                                  
==================================================================================================
Total params: 26,659
Trainable params: 26,659
Non-trainable params: 0
__________________________________________________________________________________________________
…
 bidirectional_281 (Bidirection  (None, None, 10)    280         ['masking_281[0][0]']            
 al)                                                                                              
                                                                                                  
 bidirectional_282 (Bidirection  (None, None, 10)    280         ['masking_282[0][0]']            
 al)                                                                                              
                                                                                                  
 conv1d_140 (Conv1D)            (None, 25, 5)        2855        ['masking_283[0][0]']            
                                                                                                  
 lstm_491 (LSTM)                (None, 5)            320         ['bidirectional_280[0][0]']      
                                                                                                  
 lstm_493 (LSTM)                (None, 5)            320         ['bidirectional_281[0][0]']      
                                                                                                  
 lstm_495 (LSTM)                (None, 5)            320         ['bidirectional_282[0][0]']      
                                                                                                  
 conv1d_141 (Conv1D)            (None, 25, 5)        155         ['conv1d_140[0][0]']             
                                                                                                  
 dense_280 (Dense)              (None, 96)           576         ['lstm_491[0][0]']               
                                                                                                  
 dense_281 (Dense)              (None, 96)           576         ['lstm_493[0][0]']               
                                                                                                  
 dense_282 (Dense)              (None, 96)           576         ['lstm_495[0][0]']               
                                                                                                  
 bidirectional_283 (Bidirection  (None, 96)          20736       ['conv1d_141[0][0]']             
 al)                                                                                              
                                                                                                  
 dropout_280 (Dropout)          (None, 96)           0           ['dense_280[0][0]']              
                                                                                                  
 dropout_281 (Dropout)          (None, 96)           0           ['dense_281[0][0]']              
                                                                                                  
 dropout_282 (Dropout)          (None, 96)           0           ['dense_282[0][0]']              
                                                                                                  
 dropout_283 (Dropout)          (None, 96)           0           ['bidirectional_283[0][0]']      
                                                                                                  
 concatenate_70 (Concatenate)   (None, 384)          0           ['dropout_280[0][0]',            
                                                                  'dropout_281[0][0]',            
                                                                  'dropout_282[0][0]',            
                                                                  'dropout_283[0][0]']            
                                                                                                  
 dense_283 (Dense)              (None, 1)            385         ['concatenate_70[0][0]']         
                                                                                                  
==================================================================================================
Total params: 27,659
Trainable params: 27,659
Non-trainable params: 0
__________________________________________________________________________________________________
…
 bidirectional_301 (Bidirection  (None, None, 10)    280         ['masking_301[0][0]']            
 al)                                                                                              
                                                                                                  
 bidirectional_302 (Bidirection  (None, None, 10)    280         ['masking_302[0][0]']            
 al)                                                                                              
                                                                                                  
 conv1d_150 (Conv1D)            (None, 25, 5)        3805        ['masking_303[0][0]']            
                                                                                                  
 lstm_526 (LSTM)                (None, 5)            320         ['bidirectional_300[0][0]']      
                                                                                                  
 lstm_528 (LSTM)                (None, 5)            320         ['bidirectional_301[0][0]']      
                                                                                                  
 lstm_530 (LSTM)                (None, 5)            320         ['bidirectional_302[0][0]']      
                                                                                                  
 conv1d_151 (Conv1D)            (None, 25, 5)        205         ['conv1d_150[0][0]']             
                                                                                                  
 dense_300 (Dense)              (None, 96)           576         ['lstm_526[0][0]']               
                                                                                                  
 dense_301 (Dense)              (None, 96)           576         ['lstm_528[0][0]']               
                                                                                                  
 dense_302 (Dense)              (None, 96)           576         ['lstm_530[0][0]']               
                                                                                                  
 bidirectional_303 (Bidirection  (None, 96)          20736       ['conv1d_151[0][0]']             
 al)                                                                                              
                                                                                                  
 dropout_300 (Dropout)          (None, 96)           0           ['dense_300[0][0]']              
                                                                                                  
 dropout_301 (Dropout)          (None, 96)           0           ['dense_301[0][0]']              
                                                                                                  
 dropout_302 (Dropout)          (None, 96)           0           ['dense_302[0][0]']              
                                                                                                  
 dropout_303 (Dropout)          (None, 96)           0           ['bidirectional_303[0][0]']      
                                                                                                  
 concatenate_75 (Concatenate)   (None, 384)          0           ['dropout_300[0][0]',            
                                                                  'dropout_301[0][0]',            
                                                                  'dropout_302[0][0]',            
                                                                  'dropout_303[0][0]']            
                                                                                                  
 dense_303 (Dense)              (None, 1)            385         ['concatenate_75[0][0]']         
                                                                                                  
==================================================================================================
Total params: 28,659
Trainable params: 28,659
Non-trainable params: 0
__________________________________________________________________________________________________
…
 bidirectional_321 (Bidirection  (None, None, 10)    280         ['masking_321[0][0]']            
 al)                                                                                              
                                                                                                  
 bidirectional_322 (Bidirection  (None, None, 10)    280         ['masking_322[0][0]']            
 al)                                                                                              
                                                                                                  
 conv1d_160 (Conv1D)            (None, 25, 5)        1905        ['masking_323[0][0]']            
                                                                                                  
 lstm_561 (LSTM)                (None, 5)            320         ['bidirectional_320[0][0]']      
                                                                                                  
 lstm_563 (LSTM)                (None, 5)            320         ['bidirectional_321[0][0]']      
                                                                                                  
 lstm_565 (LSTM)                (None, 5)            320         ['bidirectional_322[0][0]']      
                                                                                                  
 conv1d_161 (Conv1D)            (None, 25, 5)        105         ['conv1d_160[0][0]']             
                                                                                                  
 dense_320 (Dense)              (None, 128)          768         ['lstm_561[0][0]']               
                                                                                                  
 dense_321 (Dense)              (None, 128)          768         ['lstm_563[0][0]']               
                                                                                                  
 dense_322 (Dense)              (None, 128)          768         ['lstm_565[0][0]']               
                                                                                                  
 bidirectional_323 (Bidirection  (None, 128)         35840       ['conv1d_161[0][0]']             
 al)                                                                                              
                                                                                                  
 dropout_320 (Dropout)          (None, 128)          0           ['dense_320[0][0]']              
                                                                                                  
 dropout_321 (Dropout)          (None, 128)          0           ['dense_321[0][0]']              
                                                                                                  
 dropout_322 (Dropout)          (None, 128)          0           ['dense_322[0][0]']              
                                                                                                  
 dropout_323 (Dropout)          (None, 128)          0           ['bidirectional_323[0][0]']      
                                                                                                  
 concatenate_80 (Concatenate)   (None, 512)          0           ['dropout_320[0][0]',            
                                                                  'dropout_321[0][0]',            
                                                                  'dropout_322[0][0]',            
                                                                  'dropout_323[0][0]']            
                                                                                                  
 dense_323 (Dense)              (None, 1)            513         ['concatenate_80[0][0]']         
                                                                                                  
==================================================================================================
Total params: 42,467
Trainable params: 42,467
Non-trainable params: 0
__________________________________________________________________________________________________
…
 bidirectional_341 (Bidirection  (None, None, 10)    280         ['masking_341[0][0]']            
 al)                                                                                              
                                                                                                  
 bidirectional_342 (Bidirection  (None, None, 10)    280         ['masking_342[0][0]']            
 al)                                                                                              
                                                                                                  
 conv1d_170 (Conv1D)            (None, 25, 5)        2855        ['masking_343[0][0]']            
                                                                                                  
 lstm_596 (LSTM)                (None, 5)            320         ['bidirectional_340[0][0]']      
                                                                                                  
 lstm_598 (LSTM)                (None, 5)            320         ['bidirectional_341[0][0]']      
                                                                                                  
 lstm_600 (LSTM)                (None, 5)            320         ['bidirectional_342[0][0]']      
                                                                                                  
 conv1d_171 (Conv1D)            (None, 25, 5)        155         ['conv1d_170[0][0]']             
                                                                                                  
 dense_340 (Dense)              (None, 128)          768         ['lstm_596[0][0]']               
                                                                                                  
 dense_341 (Dense)              (None, 128)          768         ['lstm_598[0][0]']               
                                                                                                  
 dense_342 (Dense)              (None, 128)          768         ['lstm_600[0][0]']               
                                                                                                  
 bidirectional_343 (Bidirection  (None, 128)         35840       ['conv1d_171[0][0]']             
 al)                                                                                              
                                                                                                  
 dropout_340 (Dropout)          (None, 128)          0           ['dense_340[0][0]']              
                                                                                                  
 dropout_341 (Dropout)          (None, 128)          0           ['dense_341[0][0]']              
                                                                                                  
 dropout_342 (Dropout)          (None, 128)          0           ['dense_342[0][0]']              
                                                                                                  
 dropout_343 (Dropout)          (None, 128)          0           ['bidirectional_343[0][0]']      
                                                                                                  
 concatenate_85 (Concatenate)   (None, 512)          0           ['dropout_340[0][0]',            
                                                                  'dropout_341[0][0]',            
                                                                  'dropout_342[0][0]',            
                                                                  'dropout_343[0][0]']            
                                                                                                  
 dense_343 (Dense)              (None, 1)            513         ['concatenate_85[0][0]']         
                                                                                                  
==================================================================================================
Total params: 43,467
Trainable params: 43,467
Non-trainable params: 0
__________________________________________________________________________________________________
…
 bidirectional_361 (Bidirection  (None, None, 10)    280         ['masking_361[0][0]']            
 al)                                                                                              
                                                                                                  
 bidirectional_362 (Bidirection  (None, None, 10)    280         ['masking_362[0][0]']            
 al)                                                                                              
                                                                                                  
 conv1d_180 (Conv1D)            (None, 25, 5)        3805        ['masking_363[0][0]']            
                                                                                                  
 lstm_631 (LSTM)                (None, 5)            320         ['bidirectional_360[0][0]']      
                                                                                                  
 lstm_633 (LSTM)                (None, 5)            320         ['bidirectional_361[0][0]']      
                                                                                                  
 lstm_635 (LSTM)                (None, 5)            320         ['bidirectional_362[0][0]']      
                                                                                                  
 conv1d_181 (Conv1D)            (None, 25, 5)        205         ['conv1d_180[0][0]']             
                                                                                                  
 dense_360 (Dense)              (None, 128)          768         ['lstm_631[0][0]']               
                                                                                                  
 dense_361 (Dense)              (None, 128)          768         ['lstm_633[0][0]']               
                                                                                                  
 dense_362 (Dense)              (None, 128)          768         ['lstm_635[0][0]']               
                                                                                                  
 bidirectional_363 (Bidirection  (None, 128)         35840       ['conv1d_181[0][0]']             
 al)                                                                                              
                                                                                                  
 dropout_360 (Dropout)          (None, 128)          0           ['dense_360[0][0]']              
                                                                                                  
 dropout_361 (Dropout)          (None, 128)          0           ['dense_361[0][0]']              
                                                                                                  
 dropout_362 (Dropout)          (None, 128)          0           ['dense_362[0][0]']              
                                                                                                  
 dropout_363 (Dropout)          (None, 128)          0           ['bidirectional_363[0][0]']      
                                                                                                  
 concatenate_90 (Concatenate)   (None, 512)          0           ['dropout_360[0][0]',            
                                                                  'dropout_361[0][0]',            
                                                                  'dropout_362[0][0]',            
                                                                  'dropout_363[0][0]']            
                                                                                                  
 dense_363 (Dense)              (None, 1)            513         ['concatenate_90[0][0]']         
                                                                                                  
==================================================================================================
Total params: 44,467
Trainable params: 44,467
Non-trainable params: 0
__________________________________________________________________________________________________
…
