…
 bidirectional_601 (Bidirection  (None, None, 10)    280         ['masking_601[0][0]']            
 al)                                                                                              
                                                                                                  
 bidirectional_602 (Bidirection  (None, None, 10)    280         ['masking_602[0][0]']            
 al)                                                                                              
                                                                                                  
 conv1d_300 (Conv1D)            (None, 25, 5)        1905        ['masking_603[0][0]']            
                                                                                                  
 lstm_1051 (LSTM)               (None, 5)            320         ['bidirectional_600[0][0]']      
                                                                                                  
 lstm_1053 (LSTM)               (None, 5)            320         ['bidirectional_601[0][0]']      
                                                                                                  
 lstm_1055 (LSTM)               (None, 5)            320         ['bidirectional_602[0][0]']      
                                                                                                  
 conv1d_301 (Conv1D)            (None, 25, 5)        105         ['conv1d_300[0][0]']             
                                                                                                  
 dense_600 (Dense)              (None, 64)           384         ['lstm_1051[0][0]']              
                                                                                                  
 dense_601 (Dense)              (None, 64)           384         ['lstm_1053[0][0]']              
                                                                                                  
 dense_602 (Dense)              (None, 64)           384         ['lstm_1055[0][0]']              
                                                                                                  
 bidirectional_603 (Bidirection  (None, 64)          9728        ['conv1d_301[0][0]']             
 al)                                                                                              
                                                                                                  
 dropout_600 (Dropout)          (None, 64)           0           ['dense_600[0][0]']              
                                                                                                  
 dropout_601 (Dropout)          (None, 64)           0           ['dense_601[0][0]']              
                                                                                                  
 dropout_602 (Dropout)          (None, 64)           0           ['dense_602[0][0]']              
                                                                                                  
 dropout_603 (Dropout)          (None, 64)           0           ['bidirectional_603[0][0]']      
                                                                                                  
 concatenate_150 (Concatenate)  (None, 256)          0           ['dropout_600[0][0]',            
                                                                  'dropout_601[0][0]',            
                                                                  'dropout_602[0][0]',            
                                                                  'dropout_603[0][0]']            
                                                                                                  
 dense_603 (Dense)              (None, 1)            257         ['concatenate_150[0][0]']        
                                                                                                  
==================================================================================================
Total params: 14,947
Trainable params: 14,947
Non-trainable params: 0
__________________________________________________________________________________________________
…
 bidirectional_621 (Bidirection  (None, None, 10)    280         ['masking_621[0][0]']            
 al)                                                                                              
                                                                                                  
 bidirectional_622 (Bidirection  (None, None, 10)    280         ['masking_622[0][0]']            
 al)                                                                                              
                                                                                                  
 conv1d_310 (Conv1D)            (None, 25, 5)        2855        ['masking_623[0][0]']            
                                                                                                  
 lstm_1086 (LSTM)               (None, 5)            320         ['bidirectional_620[0][0]']      
                                                                                                  
 lstm_1088 (LSTM)               (None, 5)            320         ['bidirectional_621[0][0]']      
                                                                                                  
 lstm_1090 (LSTM)               (None, 5)            320         ['bidirectional_622[0][0]']      
                                                                                                  
 conv1d_311 (Conv1D)            (None, 25, 5)        155         ['conv1d_310[0][0]']             
                                                                                                  
 dense_620 (Dense)              (None, 64)           384         ['lstm_1086[0][0]']              
                                                                                                  
 dense_621 (Dense)              (None, 64)           384         ['lstm_1088[0][0]']              
                                                                                                  
 dense_622 (Dense)              (None, 64)           384         ['lstm_1090[0][0]']              
                                                                                                  
 bidirectional_623 (Bidirection  (None, 64)          9728        ['conv1d_311[0][0]']             
 al)                                                                                              
                                                                                                  
 dropout_620 (Dropout)          (None, 64)           0           ['dense_620[0][0]']              
                                                                                                  
 dropout_621 (Dropout)          (None, 64)           0           ['dense_621[0][0]']              
                                                                                                  
 dropout_622 (Dropout)          (None, 64)           0           ['dense_622[0][0]']              
                                                                                                  
 dropout_623 (Dropout)          (None, 64)           0           ['bidirectional_623[0][0]']      
                                                                                                  
 concatenate_155 (Concatenate)  (None, 256)          0           ['dropout_620[0][0]',            
                                                                  'dropout_621[0][0]',            
                                                                  'dropout_622[0][0]',            
                                                                  'dropout_623[0][0]']            
                                                                                                  
 dense_623 (Dense)              (None, 1)            257         ['concatenate_155[0][0]']        
                                                                                                  
==================================================================================================
Total params: 15,947
Trainable params: 15,947
Non-trainable params: 0
__________________________________________________________________________________________________
…
 bidirectional_641 (Bidirection  (None, None, 10)    280         ['masking_641[0][0]']            
 al)                                                                                              
                                                                                                  
 bidirectional_642 (Bidirection  (None, None, 10)    280         ['masking_642[0][0]']            
 al)                                                                                              
                                                                                                  
 conv1d_320 (Conv1D)            (None, 25, 5)        3805        ['masking_643[0][0]']            
                                                                                                  
 lstm_1121 (LSTM)               (None, 5)            320         ['bidirectional_640[0][0]']      
                                                                                                  
 lstm_1123 (LSTM)               (None, 5)            320         ['bidirectional_641[0][0]']      
                                                                                                  
 lstm_1125 (LSTM)               (None, 5)            320         ['bidirectional_642[0][0]']      
                                                                                                  
 conv1d_321 (Conv1D)            (None, 25, 5)        205         ['conv1d_320[0][0]']             
                                                                                                  
 dense_640 (Dense)              (None, 64)           384         ['lstm_1121[0][0]']              
                                                                                                  
 dense_641 (Dense)              (None, 64)           384         ['lstm_1123[0][0]']              
                                                                                                  
 dense_642 (Dense)              (None, 64)           384         ['lstm_1125[0][0]']              
                                                                                                  
 bidirectional_643 (Bidirection  (None, 64)          9728        ['conv1d_321[0][0]']             
 al)                                                                                              
                                                                                                  
 dropout_640 (Dropout)          (None, 64)           0           ['dense_640[0][0]']              
                                                                                                  
 dropout_641 (Dropout)          (None, 64)           0           ['dense_641[0][0]']              
                                                                                                  
 dropout_642 (Dropout)          (None, 64)           0           ['dense_642[0][0]']              
                                                                                                  
 dropout_643 (Dropout)          (None, 64)           0           ['bidirectional_643[0][0]']      
                                                                                                  
 concatenate_160 (Concatenate)  (None, 256)          0           ['dropout_640[0][0]',            
                                                                  'dropout_641[0][0]',            
                                                                  'dropout_642[0][0]',            
                                                                  'dropout_643[0][0]']            
                                                                                                  
 dense_643 (Dense)              (None, 1)            257         ['concatenate_160[0][0]']        
                                                                                                  
==================================================================================================
Total params: 16,947
Trainable params: 16,947
Non-trainable params: 0
__________________________________________________________________________________________________
…
 bidirectional_661 (Bidirection  (None, None, 10)    280         ['masking_661[0][0]']            
 al)                                                                                              
                                                                                                  
 bidirectional_662 (Bidirection  (None, None, 10)    280         ['masking_662[0][0]']            
 al)                                                                                              
                                                                                                  
 conv1d_330 (Conv1D)            (None, 25, 5)        1905        ['masking_663[0][0]']            
                                                                                                  
 lstm_1156 (LSTM)               (None, 5)            320         ['bidirectional_660[0][0]']      
                                                                                                  
 lstm_1158 (LSTM)               (None, 5)            320         ['bidirectional_661[0][0]']      
                                                                                                  
 lstm_1160 (LSTM)               (None, 5)            320         ['bidirectional_662[0][0]']      
                                                                                                  
 conv1d_331 (Conv1D)            (None, 25, 5)        105         ['conv1d_330[0][0]']             
                                                                                                  
 dense_660 (Dense)              (None, 96)           576         ['lstm_1156[0][0]']              
                                                                                                  
 dense_661 (Dense)              (None, 96)           576         ['lstm_1158[0][0]']              
                                                                                                  
 dense_662 (Dense)              (None, 96)           576         ['lstm_1160[0][0]']              
                                                                                                  
 bidirectional_663 (Bidirection  (None, 96)          20736       ['conv1d_331[0][0]']             
 al)                                                                                              
                                                                                                  
 dropout_660 (Dropout)          (None, 96)           0           ['dense_660[0][0]']              
                                                                                                  
 dropout_661 (Dropout)          (None, 96)           0           ['dense_661[0][0]']              
                                                                                                  
 dropout_662 (Dropout)          (None, 96)           0           ['dense_662[0][0]']              
                                                                                                  
 dropout_663 (Dropout)          (None, 96)           0           ['bidirectional_663[0][0]']      
                                                                                                  
 concatenate_165 (Concatenate)  (None, 384)          0           ['dropout_660[0][0]',            
                                                                  'dropout_661[0][0]',            
                                                                  'dropout_662[0][0]',            
                                                                  'dropout_663[0][0]']            
                                                                                                  
 dense_663 (Dense)              (None, 1)            385         ['concatenate_165[0][0]']        
                                                                                                  
==================================================================================================
Total params: 26,659
Trainable params: 26,659
Non-trainable params: 0
__________________________________________________________________________________________________
…
 bidirectional_681 (Bidirection  (None, None, 10)    280         ['masking_681[0][0]']            
 al)                                                                                              
                                                                                                  
 bidirectional_682 (Bidirection  (None, None, 10)    280         ['masking_682[0][0]']            
 al)                                                                                              
                                                                                                  
 conv1d_340 (Conv1D)            (None, 25, 5)        2855        ['masking_683[0][0]']            
                                                                                                  
 lstm_1191 (LSTM)               (None, 5)            320         ['bidirectional_680[0][0]']      
                                                                                                  
 lstm_1193 (LSTM)               (None, 5)            320         ['bidirectional_681[0][0]']      
                                                                                                  
 lstm_1195 (LSTM)               (None, 5)            320         ['bidirectional_682[0][0]']      
                                                                                                  
 conv1d_341 (Conv1D)            (None, 25, 5)        155         ['conv1d_340[0][0]']             
                                                                                                  
 dense_680 (Dense)              (None, 96)           576         ['lstm_1191[0][0]']              
                                                                                                  
 dense_681 (Dense)              (None, 96)           576         ['lstm_1193[0][0]']              
                                                                                                  
 dense_682 (Dense)              (None, 96)           576         ['lstm_1195[0][0]']              
                                                                                                  
 bidirectional_683 (Bidirection  (None, 96)          20736       ['conv1d_341[0][0]']             
 al)                                                                                              
                                                                                                  
 dropout_680 (Dropout)          (None, 96)           0           ['dense_680[0][0]']              
                                                                                                  
 dropout_681 (Dropout)          (None, 96)           0           ['dense_681[0][0]']              
                                                                                                  
 dropout_682 (Dropout)          (None, 96)           0           ['dense_682[0][0]']              
                                                                                                  
 dropout_683 (Dropout)          (None, 96)           0           ['bidirectional_683[0][0]']      
                                                                                                  
 concatenate_170 (Concatenate)  (None, 384)          0           ['dropout_680[0][0]',            
                                                                  'dropout_681[0][0]',            
                                                                  'dropout_682[0][0]',            
                                                                  'dropout_683[0][0]']            
                                                                                                  
 dense_683 (Dense)              (None, 1)            385         ['concatenate_170[0][0]']        
                                                                                                  
==================================================================================================
Total params: 27,659
Trainable params: 27,659
Non-trainable params: 0
__________________________________________________________________________________________________
…
 bidirectional_701 (Bidirection  (None, None, 10)    280         ['masking_701[0][0]']            
 al)                                                                                              
                                                                                                  
 bidirectional_702 (Bidirection  (None, None, 10)    280         ['masking_702[0][0]']            
 al)                                                                                              
                                                                                                  
 conv1d_350 (Conv1D)            (None, 25, 5)        3805        ['masking_703[0][0]']            
                                                                                                  
 lstm_1226 (LSTM)               (None, 5)            320         ['bidirectional_700[0][0]']      
                                                                                                  
 lstm_1228 (LSTM)               (None, 5)            320         ['bidirectional_701[0][0]']      
                                                                                                  
 lstm_1230 (LSTM)               (None, 5)            320         ['bidirectional_702[0][0]']      
                                                                                                  
 conv1d_351 (Conv1D)            (None, 25, 5)        205         ['conv1d_350[0][0]']             
                                                                                                  
 dense_700 (Dense)              (None, 96)           576         ['lstm_1226[0][0]']              
                                                                                                  
 dense_701 (Dense)              (None, 96)           576         ['lstm_1228[0][0]']              
                                                                                                  
 dense_702 (Dense)              (None, 96)           576         ['lstm_1230[0][0]']              
                                                                                                  
 bidirectional_703 (Bidirection  (None, 96)          20736       ['conv1d_351[0][0]']             
 al)                                                                                              
                                                                                                  
 dropout_700 (Dropout)          (None, 96)           0           ['dense_700[0][0]']              
                                                                                                  
 dropout_701 (Dropout)          (None, 96)           0           ['dense_701[0][0]']              
                                                                                                  
 dropout_702 (Dropout)          (None, 96)           0           ['dense_702[0][0]']              
                                                                                                  
 dropout_703 (Dropout)          (None, 96)           0           ['bidirectional_703[0][0]']      
                                                                                                  
 concatenate_175 (Concatenate)  (None, 384)          0           ['dropout_700[0][0]',            
                                                                  'dropout_701[0][0]',            
                                                                  'dropout_702[0][0]',            
                                                                  'dropout_703[0][0]']            
                                                                                                  
 dense_703 (Dense)              (None, 1)            385         ['concatenate_175[0][0]']        
                                                                                                  
==================================================================================================
Total params: 28,659
Trainable params: 28,659
Non-trainable params: 0
__________________________________________________________________________________________________
…
 bidirectional_721 (Bidirection  (None, None, 10)    280         ['masking_721[0][0]']            
 al)                                                                                              
                                                                                                  
 bidirectional_722 (Bidirection  (None, None, 10)    280         ['masking_722[0][0]']            
 al)                                                                                              
                                                                                                  
 conv1d_360 (Conv1D)            (None, 25, 5)        1905        ['masking_723[0][0]']            
                                                                                                  
 lstm_1261 (LSTM)               (None, 5)            320         ['bidirectional_720[0][0]']      
                                                                                                  
 lstm_1263 (LSTM)               (None, 5)            320         ['bidirectional_721[0][0]']      
                                                                                                  
 lstm_1265 (LSTM)               (None, 5)            320         ['bidirectional_722[0][0]']      
                                                                                                  
 conv1d_361 (Conv1D)            (None, 25, 5)        105         ['conv1d_360[0][0]']             
                                                                                                  
 dense_720 (Dense)              (None, 128)          768         ['lstm_1261[0][0]']              
                                                                                                  
 dense_721 (Dense)              (None, 128)          768         ['lstm_1263[0][0]']              
                                                                                                  
 dense_722 (Dense)              (None, 128)          768         ['lstm_1265[0][0]']              
                                                                                                  
 bidirectional_723 (Bidirection  (None, 128)         35840       ['conv1d_361[0][0]']             
 al)                                                                                              
                                                                                                  
 dropout_720 (Dropout)          (None, 128)          0           ['dense_720[0][0]']              
                                                                                                  
 dropout_721 (Dropout)          (None, 128)          0           ['dense_721[0][0]']              
                                                                                                  
 dropout_722 (Dropout)          (None, 128)          0           ['dense_722[0][0]']              
                                                                                                  
 dropout_723 (Dropout)          (None, 128)          0           ['bidirectional_723[0][0]']      
                                                                                                  
 concatenate_180 (Concatenate)  (None, 512)          0           ['dropout_720[0][0]',            
                                                                  'dropout_721[0][0]',            
                                                                  'dropout_722[0][0]',            
                                                                  'dropout_723[0][0]']            
                                                                                                  
 dense_723 (Dense)              (None, 1)            513         ['concatenate_180[0][0]']        
                                                                                                  
==================================================================================================
Total params: 42,467
Trainable params: 42,467
Non-trainable params: 0
__________________________________________________________________________________________________
…
 bidirectional_741 (Bidirection  (None, None, 10)    280         ['masking_741[0][0]']            
 al)                                                                                              
                                                                                                  
 bidirectional_742 (Bidirection  (None, None, 10)    280         ['masking_742[0][0]']            
 al)                                                                                              
                                                                                                  
 conv1d_370 (Conv1D)            (None, 25, 5)        2855        ['masking_743[0][0]']            
                                                                                                  
 lstm_1296 (LSTM)               (None, 5)            320         ['bidirectional_740[0][0]']      
                                                                                                  
 lstm_1298 (LSTM)               (None, 5)            320         ['bidirectional_741[0][0]']      
                                                                                                  
 lstm_1300 (LSTM)               (None, 5)            320         ['bidirectional_742[0][0]']      
                                                                                                  
 conv1d_371 (Conv1D)            (None, 25, 5)        155         ['conv1d_370[0][0]']             
                                                                                                  
 dense_740 (Dense)              (None, 128)          768         ['lstm_1296[0][0]']              
                                                                                                  
 dense_741 (Dense)              (None, 128)          768         ['lstm_1298[0][0]']              
                                                                                                  
 dense_742 (Dense)              (None, 128)          768         ['lstm_1300[0][0]']              
                                                                                                  
 bidirectional_743 (Bidirection  (None, 128)         35840       ['conv1d_371[0][0]']             
 al)                                                                                              
                                                                                                  
 dropout_740 (Dropout)          (None, 128)          0           ['dense_740[0][0]']              
                                                                                                  
 dropout_741 (Dropout)          (None, 128)          0           ['dense_741[0][0]']              
                                                                                                  
 dropout_742 (Dropout)          (None, 128)          0           ['dense_742[0][0]']              
                                                                                                  
 dropout_743 (Dropout)          (None, 128)          0           ['bidirectional_743[0][0]']      
                                                                                                  
 concatenate_185 (Concatenate)  (None, 512)          0           ['dropout_740[0][0]',            
                                                                  'dropout_741[0][0]',            
                                                                  'dropout_742[0][0]',            
                                                                  'dropout_743[0][0]']            
                                                                                                  
 dense_743 (Dense)              (None, 1)            513         ['concatenate_185[0][0]']        
                                                                                                  
==================================================================================================
Total params: 43,467
Trainable params: 43,467
Non-trainable params: 0
__________________________________________________________________________________________________
…
 bidirectional_761 (Bidirection  (None, None, 10)    280         ['masking_761[0][0]']            
 al)                                                                                              
                                                                                                  
 bidirectional_762 (Bidirection  (None, None, 10)    280         ['masking_762[0][0]']            
 al)                                                                                              
                                                                                                  
 conv1d_380 (Conv1D)            (None, 25, 5)        3805        ['masking_763[0][0]']            
                                                                                                  
 lstm_1331 (LSTM)               (None, 5)            320         ['bidirectional_760[0][0]']      
                                                                                                  
 lstm_1333 (LSTM)               (None, 5)            320         ['bidirectional_761[0][0]']      
                                                                                                  
 lstm_1335 (LSTM)               (None, 5)            320         ['bidirectional_762[0][0]']      
                                                                                                  
 conv1d_381 (Conv1D)            (None, 25, 5)        205         ['conv1d_380[0][0]']             
                                                                                                  
 dense_760 (Dense)              (None, 128)          768         ['lstm_1331[0][0]']              
                                                                                                  
 dense_761 (Dense)              (None, 128)          768         ['lstm_1333[0][0]']              
                                                                                                  
 dense_762 (Dense)              (None, 128)          768         ['lstm_1335[0][0]']              
                                                                                                  
 bidirectional_763 (Bidirection  (None, 128)         35840       ['conv1d_381[0][0]']             
 al)                                                                                              
                                                                                                  
 dropout_760 (Dropout)          (None, 128)          0           ['dense_760[0][0]']              
                                                                                                  
 dropout_761 (Dropout)          (None, 128)          0           ['dense_761[0][0]']              
                                                                                                  
 dropout_762 (Dropout)          (None, 128)          0           ['dense_762[0][0]']              
                                                                                                  
 dropout_763 (Dropout)          (None, 128)          0           ['bidirectional_763[0][0]']      
                                                                                                  
 concatenate_190 (Concatenate)  (None, 512)          0           ['dropout_760[0][0]',            
                                                                  'dropout_761[0][0]',            
                                                                  'dropout_762[0][0]',            
                                                                  'dropout_763[0][0]']            
                                                                                                  
 dense_763 (Dense)              (None, 1)            513         ['concatenate_190[0][0]']        
                                                                                                  
==================================================================================================
Total params: 44,467
Trainable params: 44,467
Non-trainable params: 0
__________________________________________________________________________________________________
…
