…
 bidirectional_801 (Bidirection  (None, None, 10)    280         ['masking_801[0][0]']            
 al)                                                                                              
                                                                                                  
 bidirectional_802 (Bidirection  (None, None, 10)    280         ['masking_802[0][0]']            
 al)                                                                                              
                                                                                                  
 conv1d_400 (Conv1D)            (None, 25, 5)        1905        ['masking_803[0][0]']            
                                                                                                  
 lstm_1401 (LSTM)               (None, 5)            320         ['bidirectional_800[0][0]']      
                                                                                                  
 lstm_1403 (LSTM)               (None, 5)            320         ['bidirectional_801[0][0]']      
                                                                                                  
 lstm_1405 (LSTM)               (None, 5)            320         ['bidirectional_802[0][0]']      
                                                                                                  
 conv1d_401 (Conv1D)            (None, 25, 5)        105         ['conv1d_400[0][0]']             
                                                                                                  
 dense_800 (Dense)              (None, 64)           384         ['lstm_1401[0][0]']              
                                                                                                  
 dense_801 (Dense)              (None, 64)           384         ['lstm_1403[0][0]']              
                                                                                                  
 dense_802 (Dense)              (None, 64)           384         ['lstm_1405[0][0]']              
                                                                                                  
 bidirectional_803 (Bidirection  (None, 64)          9728        ['conv1d_401[0][0]']             
 al)                                                                                              
                                                                                                  
 dropout_800 (Dropout)          (None, 64)           0           ['dense_800[0][0]']              
                                                                                                  
 dropout_801 (Dropout)          (None, 64)           0           ['dense_801[0][0]']              
                                                                                                  
 dropout_802 (Dropout)          (None, 64)           0           ['dense_802[0][0]']              
                                                                                                  
 dropout_803 (Dropout)          (None, 64)           0           ['bidirectional_803[0][0]']      
                                                                                                  
 concatenate_200 (Concatenate)  (None, 256)          0           ['dropout_800[0][0]',            
                                                                  'dropout_801[0][0]',            
                                                                  'dropout_802[0][0]',            
                                                                  'dropout_803[0][0]']            
                                                                                                  
 dense_803 (Dense)              (None, 1)            257         ['concatenate_200[0][0]']        
                                                                                                  
==================================================================================================
Total params: 14,947
Trainable params: 14,947
Non-trainable params: 0
__________________________________________________________________________________________________
…
 bidirectional_821 (Bidirection  (None, None, 10)    280         ['masking_821[0][0]']            
 al)                                                                                              
                                                                                                  
 bidirectional_822 (Bidirection  (None, None, 10)    280         ['masking_822[0][0]']            
 al)                                                                                              
                                                                                                  
 conv1d_410 (Conv1D)            (None, 25, 5)        2855        ['masking_823[0][0]']            
                                                                                                  
 lstm_1436 (LSTM)               (None, 5)            320         ['bidirectional_820[0][0]']      
                                                                                                  
 lstm_1438 (LSTM)               (None, 5)            320         ['bidirectional_821[0][0]']      
                                                                                                  
 lstm_1440 (LSTM)               (None, 5)            320         ['bidirectional_822[0][0]']      
                                                                                                  
 conv1d_411 (Conv1D)            (None, 25, 5)        155         ['conv1d_410[0][0]']             
                                                                                                  
 dense_820 (Dense)              (None, 64)           384         ['lstm_1436[0][0]']              
                                                                                                  
 dense_821 (Dense)              (None, 64)           384         ['lstm_1438[0][0]']              
                                                                                                  
 dense_822 (Dense)              (None, 64)           384         ['lstm_1440[0][0]']              
                                                                                                  
 bidirectional_823 (Bidirection  (None, 64)          9728        ['conv1d_411[0][0]']             
 al)                                                                                              
                                                                                                  
 dropout_820 (Dropout)          (None, 64)           0           ['dense_820[0][0]']              
                                                                                                  
 dropout_821 (Dropout)          (None, 64)           0           ['dense_821[0][0]']              
                                                                                                  
 dropout_822 (Dropout)          (None, 64)           0           ['dense_822[0][0]']              
                                                                                                  
 dropout_823 (Dropout)          (None, 64)           0           ['bidirectional_823[0][0]']      
                                                                                                  
 concatenate_205 (Concatenate)  (None, 256)          0           ['dropout_820[0][0]',            
                                                                  'dropout_821[0][0]',            
                                                                  'dropout_822[0][0]',            
                                                                  'dropout_823[0][0]']            
                                                                                                  
 dense_823 (Dense)              (None, 1)            257         ['concatenate_205[0][0]']        
                                                                                                  
==================================================================================================
Total params: 15,947
Trainable params: 15,947
Non-trainable params: 0
__________________________________________________________________________________________________
…
 bidirectional_841 (Bidirection  (None, None, 10)    280         ['masking_841[0][0]']            
 al)                                                                                              
                                                                                                  
 bidirectional_842 (Bidirection  (None, None, 10)    280         ['masking_842[0][0]']            
 al)                                                                                              
                                                                                                  
 conv1d_420 (Conv1D)            (None, 25, 5)        3805        ['masking_843[0][0]']            
                                                                                                  
 lstm_1471 (LSTM)               (None, 5)            320         ['bidirectional_840[0][0]']      
                                                                                                  
 lstm_1473 (LSTM)               (None, 5)            320         ['bidirectional_841[0][0]']      
                                                                                                  
 lstm_1475 (LSTM)               (None, 5)            320         ['bidirectional_842[0][0]']      
                                                                                                  
 conv1d_421 (Conv1D)            (None, 25, 5)        205         ['conv1d_420[0][0]']             
                                                                                                  
 dense_840 (Dense)              (None, 64)           384         ['lstm_1471[0][0]']              
                                                                                                  
 dense_841 (Dense)              (None, 64)           384         ['lstm_1473[0][0]']              
                                                                                                  
 dense_842 (Dense)              (None, 64)           384         ['lstm_1475[0][0]']              
                                                                                                  
 bidirectional_843 (Bidirection  (None, 64)          9728        ['conv1d_421[0][0]']             
 al)                                                                                              
                                                                                                  
 dropout_840 (Dropout)          (None, 64)           0           ['dense_840[0][0]']              
                                                                                                  
 dropout_841 (Dropout)          (None, 64)           0           ['dense_841[0][0]']              
                                                                                                  
 dropout_842 (Dropout)          (None, 64)           0           ['dense_842[0][0]']              
                                                                                                  
 dropout_843 (Dropout)          (None, 64)           0           ['bidirectional_843[0][0]']      
                                                                                                  
 concatenate_210 (Concatenate)  (None, 256)          0           ['dropout_840[0][0]',            
                                                                  'dropout_841[0][0]',            
                                                                  'dropout_842[0][0]',            
                                                                  'dropout_843[0][0]']            
                                                                                                  
 dense_843 (Dense)              (None, 1)            257         ['concatenate_210[0][0]']        
                                                                                                  
==================================================================================================
Total params: 16,947
Trainable params: 16,947
Non-trainable params: 0
__________________________________________________________________________________________________
…
 bidirectional_861 (Bidirection  (None, None, 10)    280         ['masking_861[0][0]']            
 al)                                                                                              
                                                                                                  
 bidirectional_862 (Bidirection  (None, None, 10)    280         ['masking_862[0][0]']            
 al)                                                                                              
                                                                                                  
 conv1d_430 (Conv1D)            (None, 25, 5)        1905        ['masking_863[0][0]']            
                                                                                                  
 lstm_1506 (LSTM)               (None, 5)            320         ['bidirectional_860[0][0]']      
                                                                                                  
 lstm_1508 (LSTM)               (None, 5)            320         ['bidirectional_861[0][0]']      
                                                                                                  
 lstm_1510 (LSTM)               (None, 5)            320         ['bidirectional_862[0][0]']      
                                                                                                  
 conv1d_431 (Conv1D)            (None, 25, 5)        105         ['conv1d_430[0][0]']             
                                                                                                  
 dense_860 (Dense)              (None, 96)           576         ['lstm_1506[0][0]']              
                                                                                                  
 dense_861 (Dense)              (None, 96)           576         ['lstm_1508[0][0]']              
                                                                                                  
 dense_862 (Dense)              (None, 96)           576         ['lstm_1510[0][0]']              
                                                                                                  
 bidirectional_863 (Bidirection  (None, 96)          20736       ['conv1d_431[0][0]']             
 al)                                                                                              
                                                                                                  
 dropout_860 (Dropout)          (None, 96)           0           ['dense_860[0][0]']              
                                                                                                  
 dropout_861 (Dropout)          (None, 96)           0           ['dense_861[0][0]']              
                                                                                                  
 dropout_862 (Dropout)          (None, 96)           0           ['dense_862[0][0]']              
                                                                                                  
 dropout_863 (Dropout)          (None, 96)           0           ['bidirectional_863[0][0]']      
                                                                                                  
 concatenate_215 (Concatenate)  (None, 384)          0           ['dropout_860[0][0]',            
                                                                  'dropout_861[0][0]',            
                                                                  'dropout_862[0][0]',            
                                                                  'dropout_863[0][0]']            
                                                                                                  
 dense_863 (Dense)              (None, 1)            385         ['concatenate_215[0][0]']        
                                                                                                  
==================================================================================================
Total params: 26,659
Trainable params: 26,659
Non-trainable params: 0
__________________________________________________________________________________________________
…
 bidirectional_881 (Bidirection  (None, None, 10)    280         ['masking_881[0][0]']            
 al)                                                                                              
                                                                                                  
 bidirectional_882 (Bidirection  (None, None, 10)    280         ['masking_882[0][0]']            
 al)                                                                                              
                                                                                                  
 conv1d_440 (Conv1D)            (None, 25, 5)        2855        ['masking_883[0][0]']            
                                                                                                  
 lstm_1541 (LSTM)               (None, 5)            320         ['bidirectional_880[0][0]']      
                                                                                                  
 lstm_1543 (LSTM)               (None, 5)            320         ['bidirectional_881[0][0]']      
                                                                                                  
 lstm_1545 (LSTM)               (None, 5)            320         ['bidirectional_882[0][0]']      
                                                                                                  
 conv1d_441 (Conv1D)            (None, 25, 5)        155         ['conv1d_440[0][0]']             
                                                                                                  
 dense_880 (Dense)              (None, 96)           576         ['lstm_1541[0][0]']              
                                                                                                  
 dense_881 (Dense)              (None, 96)           576         ['lstm_1543[0][0]']              
                                                                                                  
 dense_882 (Dense)              (None, 96)           576         ['lstm_1545[0][0]']              
                                                                                                  
 bidirectional_883 (Bidirection  (None, 96)          20736       ['conv1d_441[0][0]']             
 al)                                                                                              
                                                                                                  
 dropout_880 (Dropout)          (None, 96)           0           ['dense_880[0][0]']              
                                                                                                  
 dropout_881 (Dropout)          (None, 96)           0           ['dense_881[0][0]']              
                                                                                                  
 dropout_882 (Dropout)          (None, 96)           0           ['dense_882[0][0]']              
                                                                                                  
 dropout_883 (Dropout)          (None, 96)           0           ['bidirectional_883[0][0]']      
                                                                                                  
 concatenate_220 (Concatenate)  (None, 384)          0           ['dropout_880[0][0]',            
                                                                  'dropout_881[0][0]',            
                                                                  'dropout_882[0][0]',            
                                                                  'dropout_883[0][0]']            
                                                                                                  
 dense_883 (Dense)              (None, 1)            385         ['concatenate_220[0][0]']        
                                                                                                  
==================================================================================================
Total params: 27,659
Trainable params: 27,659
Non-trainable params: 0
__________________________________________________________________________________________________
…
 bidirectional_901 (Bidirection  (None, None, 10)    280         ['masking_901[0][0]']            
 al)                                                                                              
                                                                                                  
 bidirectional_902 (Bidirection  (None, None, 10)    280         ['masking_902[0][0]']            
 al)                                                                                              
                                                                                                  
 conv1d_450 (Conv1D)            (None, 25, 5)        3805        ['masking_903[0][0]']            
                                                                                                  
 lstm_1576 (LSTM)               (None, 5)            320         ['bidirectional_900[0][0]']      
                                                                                                  
 lstm_1578 (LSTM)               (None, 5)            320         ['bidirectional_901[0][0]']      
                                                                                                  
 lstm_1580 (LSTM)               (None, 5)            320         ['bidirectional_902[0][0]']      
                                                                                                  
 conv1d_451 (Conv1D)            (None, 25, 5)        205         ['conv1d_450[0][0]']             
                                                                                                  
 dense_900 (Dense)              (None, 96)           576         ['lstm_1576[0][0]']              
                                                                                                  
 dense_901 (Dense)              (None, 96)           576         ['lstm_1578[0][0]']              
                                                                                                  
 dense_902 (Dense)              (None, 96)           576         ['lstm_1580[0][0]']              
                                                                                                  
 bidirectional_903 (Bidirection  (None, 96)          20736       ['conv1d_451[0][0]']             
 al)                                                                                              
                                                                                                  
 dropout_900 (Dropout)          (None, 96)           0           ['dense_900[0][0]']              
                                                                                                  
 dropout_901 (Dropout)          (None, 96)           0           ['dense_901[0][0]']              
                                                                                                  
 dropout_902 (Dropout)          (None, 96)           0           ['dense_902[0][0]']              
                                                                                                  
 dropout_903 (Dropout)          (None, 96)           0           ['bidirectional_903[0][0]']      
                                                                                                  
 concatenate_225 (Concatenate)  (None, 384)          0           ['dropout_900[0][0]',            
                                                                  'dropout_901[0][0]',            
                                                                  'dropout_902[0][0]',            
                                                                  'dropout_903[0][0]']            
                                                                                                  
 dense_903 (Dense)              (None, 1)            385         ['concatenate_225[0][0]']        
                                                                                                  
==================================================================================================
Total params: 28,659
Trainable params: 28,659
Non-trainable params: 0
__________________________________________________________________________________________________
…
 bidirectional_921 (Bidirection  (None, None, 10)    280         ['masking_921[0][0]']            
 al)                                                                                              
                                                                                                  
 bidirectional_922 (Bidirection  (None, None, 10)    280         ['masking_922[0][0]']            
 al)                                                                                              
                                                                                                  
 conv1d_460 (Conv1D)            (None, 25, 5)        1905        ['masking_923[0][0]']            
                                                                                                  
 lstm_1611 (LSTM)               (None, 5)            320         ['bidirectional_920[0][0]']      
                                                                                                  
 lstm_1613 (LSTM)               (None, 5)            320         ['bidirectional_921[0][0]']      
                                                                                                  
 lstm_1615 (LSTM)               (None, 5)            320         ['bidirectional_922[0][0]']      
                                                                                                  
 conv1d_461 (Conv1D)            (None, 25, 5)        105         ['conv1d_460[0][0]']             
                                                                                                  
 dense_920 (Dense)              (None, 128)          768         ['lstm_1611[0][0]']              
                                                                                                  
 dense_921 (Dense)              (None, 128)          768         ['lstm_1613[0][0]']              
                                                                                                  
 dense_922 (Dense)              (None, 128)          768         ['lstm_1615[0][0]']              
                                                                                                  
 bidirectional_923 (Bidirection  (None, 128)         35840       ['conv1d_461[0][0]']             
 al)                                                                                              
                                                                                                  
 dropout_920 (Dropout)          (None, 128)          0           ['dense_920[0][0]']              
                                                                                                  
 dropout_921 (Dropout)          (None, 128)          0           ['dense_921[0][0]']              
                                                                                                  
 dropout_922 (Dropout)          (None, 128)          0           ['dense_922[0][0]']              
                                                                                                  
 dropout_923 (Dropout)          (None, 128)          0           ['bidirectional_923[0][0]']      
                                                                                                  
 concatenate_230 (Concatenate)  (None, 512)          0           ['dropout_920[0][0]',            
                                                                  'dropout_921[0][0]',            
                                                                  'dropout_922[0][0]',            
                                                                  'dropout_923[0][0]']            
                                                                                                  
 dense_923 (Dense)              (None, 1)            513         ['concatenate_230[0][0]']        
                                                                                                  
==================================================================================================
Total params: 42,467
Trainable params: 42,467
Non-trainable params: 0
__________________________________________________________________________________________________
…
 bidirectional_941 (Bidirection  (None, None, 10)    280         ['masking_941[0][0]']            
 al)                                                                                              
                                                                                                  
 bidirectional_942 (Bidirection  (None, None, 10)    280         ['masking_942[0][0]']            
 al)                                                                                              
                                                                                                  
 conv1d_470 (Conv1D)            (None, 25, 5)        2855        ['masking_943[0][0]']            
                                                                                                  
 lstm_1646 (LSTM)               (None, 5)            320         ['bidirectional_940[0][0]']      
                                                                                                  
 lstm_1648 (LSTM)               (None, 5)            320         ['bidirectional_941[0][0]']      
                                                                                                  
 lstm_1650 (LSTM)               (None, 5)            320         ['bidirectional_942[0][0]']      
                                                                                                  
 conv1d_471 (Conv1D)            (None, 25, 5)        155         ['conv1d_470[0][0]']             
                                                                                                  
 dense_940 (Dense)              (None, 128)          768         ['lstm_1646[0][0]']              
                                                                                                  
 dense_941 (Dense)              (None, 128)          768         ['lstm_1648[0][0]']              
                                                                                                  
 dense_942 (Dense)              (None, 128)          768         ['lstm_1650[0][0]']              
                                                                                                  
 bidirectional_943 (Bidirection  (None, 128)         35840       ['conv1d_471[0][0]']             
 al)                                                                                              
                                                                                                  
 dropout_940 (Dropout)          (None, 128)          0           ['dense_940[0][0]']              
                                                                                                  
 dropout_941 (Dropout)          (None, 128)          0           ['dense_941[0][0]']              
                                                                                                  
 dropout_942 (Dropout)          (None, 128)          0           ['dense_942[0][0]']              
                                                                                                  
 dropout_943 (Dropout)          (None, 128)          0           ['bidirectional_943[0][0]']      
                                                                                                  
 concatenate_235 (Concatenate)  (None, 512)          0           ['dropout_940[0][0]',            
                                                                  'dropout_941[0][0]',            
                                                                  'dropout_942[0][0]',            
                                                                  'dropout_943[0][0]']            
                                                                                                  
 dense_943 (Dense)              (None, 1)            513         ['concatenate_235[0][0]']        
                                                                                                  
==================================================================================================
Total params: 43,467
Trainable params: 43,467
Non-trainable params: 0
__________________________________________________________________________________________________
…
 bidirectional_961 (Bidirection  (None, None, 10)    280         ['masking_961[0][0]']            
 al)                                                                                              
                                                                                                  
 bidirectional_962 (Bidirection  (None, None, 10)    280         ['masking_962[0][0]']            
 al)                                                                                              
                                                                                                  
 conv1d_480 (Conv1D)            (None, 25, 5)        3805        ['masking_963[0][0]']            
                                                                                                  
 lstm_1681 (LSTM)               (None, 5)            320         ['bidirectional_960[0][0]']      
                                                                                                  
 lstm_1683 (LSTM)               (None, 5)            320         ['bidirectional_961[0][0]']      
                                                                                                  
 lstm_1685 (LSTM)               (None, 5)            320         ['bidirectional_962[0][0]']      
                                                                                                  
 conv1d_481 (Conv1D)            (None, 25, 5)        205         ['conv1d_480[0][0]']             
                                                                                                  
 dense_960 (Dense)              (None, 128)          768         ['lstm_1681[0][0]']              
                                                                                                  
 dense_961 (Dense)              (None, 128)          768         ['lstm_1683[0][0]']              
                                                                                                  
 dense_962 (Dense)              (None, 128)          768         ['lstm_1685[0][0]']              
                                                                                                  
 bidirectional_963 (Bidirection  (None, 128)         35840       ['conv1d_481[0][0]']             
 al)                                                                                              
                                                                                                  
 dropout_960 (Dropout)          (None, 128)          0           ['dense_960[0][0]']              
                                                                                                  
 dropout_961 (Dropout)          (None, 128)          0           ['dense_961[0][0]']              
                                                                                                  
 dropout_962 (Dropout)          (None, 128)          0           ['dense_962[0][0]']              
                                                                                                  
 dropout_963 (Dropout)          (None, 128)          0           ['bidirectional_963[0][0]']      
                                                                                                  
 concatenate_240 (Concatenate)  (None, 512)          0           ['dropout_960[0][0]',            
                                                                  'dropout_961[0][0]',            
                                                                  'dropout_962[0][0]',            
                                                                  'dropout_963[0][0]']            
                                                                                                  
 dense_963 (Dense)              (None, 1)            513         ['concatenate_240[0][0]']        
                                                                                                  
==================================================================================================
Total params: 44,467
Trainable params: 44,467
Non-trainable params: 0
__________________________________________________________________________________________________
…
