…
 bidirectional_1 (Bidirectional  (None, None, 10)    280         ['masking_1[0][0]']              
 )                                                                                                
                                                                                                  
 bidirectional_2 (Bidirectional  (None, None, 10)    280         ['masking_2[0][0]']              
 )                                                                                                
                                                                                                  
 conv1d (Conv1D)                (None, 25, 5)        1905        ['masking_3[0][0]']              
                                                                                                  
 lstm_1 (LSTM)                  (None, 5)            320         ['bidirectional[0][0]']          
                                                                                                  
 lstm_3 (LSTM)                  (None, 5)            320         ['bidirectional_1[0][0]']        
                                                                                                  
 lstm_5 (LSTM)                  (None, 5)            320         ['bidirectional_2[0][0]']        
                                                                                                  
 conv1d_1 (Conv1D)              (None, 25, 5)        105         ['conv1d[0][0]']                 
                                                                                                  
 dense (Dense)                  (None, 64)           384         ['lstm_1[0][0]']                 
                                                                                                  
 dense_1 (Dense)                (None, 64)           384         ['lstm_3[0][0]']                 
                                                                                                  
 dense_2 (Dense)                (None, 64)           384         ['lstm_5[0][0]']                 
                                                                                                  
 bidirectional_3 (Bidirectional  (None, 64)          9728        ['conv1d_1[0][0]']               
 )                                                                                                
                                                                                                  
 dropout (Dropout)              (None, 64)           0           ['dense[0][0]']                  
                                                                                                  
 dropout_1 (Dropout)            (None, 64)           0           ['dense_1[0][0]']                
                                                                                                  
 dropout_2 (Dropout)            (None, 64)           0           ['dense_2[0][0]']                
                                                                                                  
 dropout_3 (Dropout)            (None, 64)           0           ['bidirectional_3[0][0]']        
                                                                                                  
 concatenate (Concatenate)      (None, 256)          0           ['dropout[0][0]',                
                                                                  'dropout_1[0][0]',              
                                                                  'dropout_2[0][0]',              
                                                                  'dropout_3[0][0]']              
                                                                                                  
 dense_3 (Dense)                (None, 1)            257         ['concatenate[0][0]']            
                                                                                                  
==================================================================================================
Total params: 14,947
Trainable params: 14,947
Non-trainable params: 0
__________________________________________________________________________________________________
…
 bidirectional_21 (Bidirectiona  (None, None, 10)    280         ['masking_21[0][0]']             
 l)                                                                                               
                                                                                                  
 bidirectional_22 (Bidirectiona  (None, None, 10)    280         ['masking_22[0][0]']             
 l)                                                                                               
                                                                                                  
 conv1d_10 (Conv1D)             (None, 25, 5)        2855        ['masking_23[0][0]']             
                                                                                                  
 lstm_36 (LSTM)                 (None, 5)            320         ['bidirectional_20[0][0]']       
                                                                                                  
 lstm_38 (LSTM)                 (None, 5)            320         ['bidirectional_21[0][0]']       
                                                                                                  
 lstm_40 (LSTM)                 (None, 5)            320         ['bidirectional_22[0][0]']       
                                                                                                  
 conv1d_11 (Conv1D)             (None, 25, 5)        155         ['conv1d_10[0][0]']              
                                                                                                  
 dense_20 (Dense)               (None, 64)           384         ['lstm_36[0][0]']                
                                                                                                  
 dense_21 (Dense)               (None, 64)           384         ['lstm_38[0][0]']                
                                                                                                  
 dense_22 (Dense)               (None, 64)           384         ['lstm_40[0][0]']                
                                                                                                  
 bidirectional_23 (Bidirectiona  (None, 64)          9728        ['conv1d_11[0][0]']              
 l)                                                                                               
                                                                                                  
 dropout_20 (Dropout)           (None, 64)           0           ['dense_20[0][0]']               
                                                                                                  
 dropout_21 (Dropout)           (None, 64)           0           ['dense_21[0][0]']               
                                                                                                  
 dropout_22 (Dropout)           (None, 64)           0           ['dense_22[0][0]']               
                                                                                                  
 dropout_23 (Dropout)           (None, 64)           0           ['bidirectional_23[0][0]']       
                                                                                                  
 concatenate_5 (Concatenate)    (None, 256)          0           ['dropout_20[0][0]',             
                                                                  'dropout_21[0][0]',             
                                                                  'dropout_22[0][0]',             
                                                                  'dropout_23[0][0]']             
                                                                                                  
 dense_23 (Dense)               (None, 1)            257         ['concatenate_5[0][0]']          
                                                                                                  
==================================================================================================
Total params: 15,947
Trainable params: 15,947
Non-trainable params: 0
__________________________________________________________________________________________________
…
