…
 bidirectional_185 (Bidirection  (None, None, 10)    280         ['masking_185[0][0]']            
 al)                                                                                              
                                                                                                  
 bidirectional_186 (Bidirection  (None, None, 10)    280         ['masking_186[0][0]']            
 al)                                                                                              
                                                                                                  
 conv1d_92 (Conv1D)             (None, 25, 5)        1905        ['masking_187[0][0]']            
                                                                                                  
 lstm_323 (LSTM)                (None, 5)            320         ['bidirectional_184[0][0]']      
                                                                                                  
 lstm_325 (LSTM)                (None, 5)            320         ['bidirectional_185[0][0]']      
                                                                                                  
 lstm_327 (LSTM)                (None, 5)            320         ['bidirectional_186[0][0]']      
                                                                                                  
 conv1d_93 (Conv1D)             (None, 25, 5)        105         ['conv1d_92[0][0]']              
                                                                                                  
 dense_184 (Dense)              (None, 64)           384         ['lstm_323[0][0]']               
                                                                                                  
 dense_185 (Dense)              (None, 64)           384         ['lstm_325[0][0]']               
                                                                                                  
 dense_186 (Dense)              (None, 64)           384         ['lstm_327[0][0]']               
                                                                                                  
 bidirectional_187 (Bidirection  (None, 64)          9728        ['conv1d_93[0][0]']              
 al)                                                                                              
                                                                                                  
 dropout_184 (Dropout)          (None, 64)           0           ['dense_184[0][0]']              
                                                                                                  
 dropout_185 (Dropout)          (None, 64)           0           ['dense_185[0][0]']              
                                                                                                  
 dropout_186 (Dropout)          (None, 64)           0           ['dense_186[0][0]']              
                                                                                                  
 dropout_187 (Dropout)          (None, 64)           0           ['bidirectional_187[0][0]']      
                                                                                                  
 concatenate_46 (Concatenate)   (None, 256)          0           ['dropout_184[0][0]',            
                                                                  'dropout_185[0][0]',            
                                                                  'dropout_186[0][0]',            
                                                                  'dropout_187[0][0]']            
                                                                                                  
 dense_187 (Dense)              (None, 1)            257         ['concatenate_46[0][0]']         
                                                                                                  
==================================================================================================
Total params: 14,947
Trainable params: 14,947
Non-trainable params: 0
__________________________________________________________________________________________________
…
 bidirectional_205 (Bidirection  (None, None, 10)    280         ['masking_205[0][0]']            
 al)                                                                                              
                                                                                                  
 bidirectional_206 (Bidirection  (None, None, 10)    280         ['masking_206[0][0]']            
 al)                                                                                              
                                                                                                  
 conv1d_102 (Conv1D)            (None, 25, 5)        2855        ['masking_207[0][0]']            
                                                                                                  
 lstm_358 (LSTM)                (None, 5)            320         ['bidirectional_204[0][0]']      
                                                                                                  
 lstm_360 (LSTM)                (None, 5)            320         ['bidirectional_205[0][0]']      
                                                                                                  
 lstm_362 (LSTM)                (None, 5)            320         ['bidirectional_206[0][0]']      
                                                                                                  
 conv1d_103 (Conv1D)            (None, 25, 5)        155         ['conv1d_102[0][0]']             
                                                                                                  
 dense_204 (Dense)              (None, 64)           384         ['lstm_358[0][0]']               
                                                                                                  
 dense_205 (Dense)              (None, 64)           384         ['lstm_360[0][0]']               
                                                                                                  
 dense_206 (Dense)              (None, 64)           384         ['lstm_362[0][0]']               
                                                                                                  
 bidirectional_207 (Bidirection  (None, 64)          9728        ['conv1d_103[0][0]']             
 al)                                                                                              
                                                                                                  
 dropout_204 (Dropout)          (None, 64)           0           ['dense_204[0][0]']              
                                                                                                  
 dropout_205 (Dropout)          (None, 64)           0           ['dense_205[0][0]']              
                                                                                                  
 dropout_206 (Dropout)          (None, 64)           0           ['dense_206[0][0]']              
                                                                                                  
 dropout_207 (Dropout)          (None, 64)           0           ['bidirectional_207[0][0]']      
                                                                                                  
 concatenate_51 (Concatenate)   (None, 256)          0           ['dropout_204[0][0]',            
                                                                  'dropout_205[0][0]',            
                                                                  'dropout_206[0][0]',            
                                                                  'dropout_207[0][0]']            
                                                                                                  
 dense_207 (Dense)              (None, 1)            257         ['concatenate_51[0][0]']         
                                                                                                  
==================================================================================================
Total params: 15,947
Trainable params: 15,947
Non-trainable params: 0
__________________________________________________________________________________________________
…
 bidirectional_225 (Bidirection  (None, None, 10)    280         ['masking_225[0][0]']            
 al)                                                                                              
                                                                                                  
 bidirectional_226 (Bidirection  (None, None, 10)    280         ['masking_226[0][0]']            
 al)                                                                                              
                                                                                                  
 conv1d_112 (Conv1D)            (None, 25, 5)        3805        ['masking_227[0][0]']            
                                                                                                  
 lstm_393 (LSTM)                (None, 5)            320         ['bidirectional_224[0][0]']      
                                                                                                  
 lstm_395 (LSTM)                (None, 5)            320         ['bidirectional_225[0][0]']      
                                                                                                  
 lstm_397 (LSTM)                (None, 5)            320         ['bidirectional_226[0][0]']      
                                                                                                  
 conv1d_113 (Conv1D)            (None, 25, 5)        205         ['conv1d_112[0][0]']             
                                                                                                  
 dense_224 (Dense)              (None, 64)           384         ['lstm_393[0][0]']               
                                                                                                  
 dense_225 (Dense)              (None, 64)           384         ['lstm_395[0][0]']               
                                                                                                  
 dense_226 (Dense)              (None, 64)           384         ['lstm_397[0][0]']               
                                                                                                  
 bidirectional_227 (Bidirection  (None, 64)          9728        ['conv1d_113[0][0]']             
 al)                                                                                              
                                                                                                  
 dropout_224 (Dropout)          (None, 64)           0           ['dense_224[0][0]']              
                                                                                                  
 dropout_225 (Dropout)          (None, 64)           0           ['dense_225[0][0]']              
                                                                                                  
 dropout_226 (Dropout)          (None, 64)           0           ['dense_226[0][0]']              
                                                                                                  
 dropout_227 (Dropout)          (None, 64)           0           ['bidirectional_227[0][0]']      
                                                                                                  
 concatenate_56 (Concatenate)   (None, 256)          0           ['dropout_224[0][0]',            
                                                                  'dropout_225[0][0]',            
                                                                  'dropout_226[0][0]',            
                                                                  'dropout_227[0][0]']            
                                                                                                  
 dense_227 (Dense)              (None, 1)            257         ['concatenate_56[0][0]']         
                                                                                                  
==================================================================================================
Total params: 16,947
Trainable params: 16,947
Non-trainable params: 0
__________________________________________________________________________________________________
…
 bidirectional_245 (Bidirection  (None, None, 10)    280         ['masking_245[0][0]']            
 al)                                                                                              
                                                                                                  
 bidirectional_246 (Bidirection  (None, None, 10)    280         ['masking_246[0][0]']            
 al)                                                                                              
                                                                                                  
 conv1d_122 (Conv1D)            (None, 25, 5)        1905        ['masking_247[0][0]']            
                                                                                                  
 lstm_428 (LSTM)                (None, 5)            320         ['bidirectional_244[0][0]']      
                                                                                                  
 lstm_430 (LSTM)                (None, 5)            320         ['bidirectional_245[0][0]']      
                                                                                                  
 lstm_432 (LSTM)                (None, 5)            320         ['bidirectional_246[0][0]']      
                                                                                                  
 conv1d_123 (Conv1D)            (None, 25, 5)        105         ['conv1d_122[0][0]']             
                                                                                                  
 dense_244 (Dense)              (None, 96)           576         ['lstm_428[0][0]']               
                                                                                                  
 dense_245 (Dense)              (None, 96)           576         ['lstm_430[0][0]']               
                                                                                                  
 dense_246 (Dense)              (None, 96)           576         ['lstm_432[0][0]']               
                                                                                                  
 bidirectional_247 (Bidirection  (None, 96)          20736       ['conv1d_123[0][0]']             
 al)                                                                                              
                                                                                                  
 dropout_244 (Dropout)          (None, 96)           0           ['dense_244[0][0]']              
                                                                                                  
 dropout_245 (Dropout)          (None, 96)           0           ['dense_245[0][0]']              
                                                                                                  
 dropout_246 (Dropout)          (None, 96)           0           ['dense_246[0][0]']              
                                                                                                  
 dropout_247 (Dropout)          (None, 96)           0           ['bidirectional_247[0][0]']      
                                                                                                  
 concatenate_61 (Concatenate)   (None, 384)          0           ['dropout_244[0][0]',            
                                                                  'dropout_245[0][0]',            
                                                                  'dropout_246[0][0]',            
                                                                  'dropout_247[0][0]']            
                                                                                                  
 dense_247 (Dense)              (None, 1)            385         ['concatenate_61[0][0]']         
                                                                                                  
==================================================================================================
Total params: 26,659
Trainable params: 26,659
Non-trainable params: 0
__________________________________________________________________________________________________
…
 bidirectional_265 (Bidirection  (None, None, 10)    280         ['masking_265[0][0]']            
 al)                                                                                              
                                                                                                  
 bidirectional_266 (Bidirection  (None, None, 10)    280         ['masking_266[0][0]']            
 al)                                                                                              
                                                                                                  
 conv1d_132 (Conv1D)            (None, 25, 5)        2855        ['masking_267[0][0]']            
                                                                                                  
 lstm_463 (LSTM)                (None, 5)            320         ['bidirectional_264[0][0]']      
                                                                                                  
 lstm_465 (LSTM)                (None, 5)            320         ['bidirectional_265[0][0]']      
                                                                                                  
 lstm_467 (LSTM)                (None, 5)            320         ['bidirectional_266[0][0]']      
                                                                                                  
 conv1d_133 (Conv1D)            (None, 25, 5)        155         ['conv1d_132[0][0]']             
                                                                                                  
 dense_264 (Dense)              (None, 96)           576         ['lstm_463[0][0]']               
                                                                                                  
 dense_265 (Dense)              (None, 96)           576         ['lstm_465[0][0]']               
                                                                                                  
 dense_266 (Dense)              (None, 96)           576         ['lstm_467[0][0]']               
                                                                                                  
 bidirectional_267 (Bidirection  (None, 96)          20736       ['conv1d_133[0][0]']             
 al)                                                                                              
                                                                                                  
 dropout_264 (Dropout)          (None, 96)           0           ['dense_264[0][0]']              
                                                                                                  
 dropout_265 (Dropout)          (None, 96)           0           ['dense_265[0][0]']              
                                                                                                  
 dropout_266 (Dropout)          (None, 96)           0           ['dense_266[0][0]']              
                                                                                                  
 dropout_267 (Dropout)          (None, 96)           0           ['bidirectional_267[0][0]']      
                                                                                                  
 concatenate_66 (Concatenate)   (None, 384)          0           ['dropout_264[0][0]',            
                                                                  'dropout_265[0][0]',            
                                                                  'dropout_266[0][0]',            
                                                                  'dropout_267[0][0]']            
                                                                                                  
 dense_267 (Dense)              (None, 1)            385         ['concatenate_66[0][0]']         
                                                                                                  
==================================================================================================
Total params: 27,659
Trainable params: 27,659
Non-trainable params: 0
__________________________________________________________________________________________________
…
 bidirectional_285 (Bidirection  (None, None, 10)    280         ['masking_285[0][0]']            
 al)                                                                                              
                                                                                                  
 bidirectional_286 (Bidirection  (None, None, 10)    280         ['masking_286[0][0]']            
 al)                                                                                              
                                                                                                  
 conv1d_142 (Conv1D)            (None, 25, 5)        3805        ['masking_287[0][0]']            
                                                                                                  
 lstm_498 (LSTM)                (None, 5)            320         ['bidirectional_284[0][0]']      
                                                                                                  
 lstm_500 (LSTM)                (None, 5)            320         ['bidirectional_285[0][0]']      
                                                                                                  
 lstm_502 (LSTM)                (None, 5)            320         ['bidirectional_286[0][0]']      
                                                                                                  
 conv1d_143 (Conv1D)            (None, 25, 5)        205         ['conv1d_142[0][0]']             
                                                                                                  
 dense_284 (Dense)              (None, 96)           576         ['lstm_498[0][0]']               
                                                                                                  
 dense_285 (Dense)              (None, 96)           576         ['lstm_500[0][0]']               
                                                                                                  
 dense_286 (Dense)              (None, 96)           576         ['lstm_502[0][0]']               
                                                                                                  
 bidirectional_287 (Bidirection  (None, 96)          20736       ['conv1d_143[0][0]']             
 al)                                                                                              
                                                                                                  
 dropout_284 (Dropout)          (None, 96)           0           ['dense_284[0][0]']              
                                                                                                  
 dropout_285 (Dropout)          (None, 96)           0           ['dense_285[0][0]']              
                                                                                                  
 dropout_286 (Dropout)          (None, 96)           0           ['dense_286[0][0]']              
                                                                                                  
 dropout_287 (Dropout)          (None, 96)           0           ['bidirectional_287[0][0]']      
                                                                                                  
 concatenate_71 (Concatenate)   (None, 384)          0           ['dropout_284[0][0]',            
                                                                  'dropout_285[0][0]',            
                                                                  'dropout_286[0][0]',            
                                                                  'dropout_287[0][0]']            
                                                                                                  
 dense_287 (Dense)              (None, 1)            385         ['concatenate_71[0][0]']         
                                                                                                  
==================================================================================================
Total params: 28,659
Trainable params: 28,659
Non-trainable params: 0
__________________________________________________________________________________________________
…
 bidirectional_305 (Bidirection  (None, None, 10)    280         ['masking_305[0][0]']            
 al)                                                                                              
                                                                                                  
 bidirectional_306 (Bidirection  (None, None, 10)    280         ['masking_306[0][0]']            
 al)                                                                                              
                                                                                                  
 conv1d_152 (Conv1D)            (None, 25, 5)        1905        ['masking_307[0][0]']            
                                                                                                  
 lstm_533 (LSTM)                (None, 5)            320         ['bidirectional_304[0][0]']      
                                                                                                  
 lstm_535 (LSTM)                (None, 5)            320         ['bidirectional_305[0][0]']      
                                                                                                  
 lstm_537 (LSTM)                (None, 5)            320         ['bidirectional_306[0][0]']      
                                                                                                  
 conv1d_153 (Conv1D)            (None, 25, 5)        105         ['conv1d_152[0][0]']             
                                                                                                  
 dense_304 (Dense)              (None, 128)          768         ['lstm_533[0][0]']               
                                                                                                  
 dense_305 (Dense)              (None, 128)          768         ['lstm_535[0][0]']               
                                                                                                  
 dense_306 (Dense)              (None, 128)          768         ['lstm_537[0][0]']               
                                                                                                  
 bidirectional_307 (Bidirection  (None, 128)         35840       ['conv1d_153[0][0]']             
 al)                                                                                              
                                                                                                  
 dropout_304 (Dropout)          (None, 128)          0           ['dense_304[0][0]']              
                                                                                                  
 dropout_305 (Dropout)          (None, 128)          0           ['dense_305[0][0]']              
                                                                                                  
 dropout_306 (Dropout)          (None, 128)          0           ['dense_306[0][0]']              
                                                                                                  
 dropout_307 (Dropout)          (None, 128)          0           ['bidirectional_307[0][0]']      
                                                                                                  
 concatenate_76 (Concatenate)   (None, 512)          0           ['dropout_304[0][0]',            
                                                                  'dropout_305[0][0]',            
                                                                  'dropout_306[0][0]',            
                                                                  'dropout_307[0][0]']            
                                                                                                  
 dense_307 (Dense)              (None, 1)            513         ['concatenate_76[0][0]']         
                                                                                                  
==================================================================================================
Total params: 42,467
Trainable params: 42,467
Non-trainable params: 0
__________________________________________________________________________________________________
…
 bidirectional_325 (Bidirection  (None, None, 10)    280         ['masking_325[0][0]']            
 al)                                                                                              
                                                                                                  
 bidirectional_326 (Bidirection  (None, None, 10)    280         ['masking_326[0][0]']            
 al)                                                                                              
                                                                                                  
 conv1d_162 (Conv1D)            (None, 25, 5)        2855        ['masking_327[0][0]']            
                                                                                                  
 lstm_568 (LSTM)                (None, 5)            320         ['bidirectional_324[0][0]']      
                                                                                                  
 lstm_570 (LSTM)                (None, 5)            320         ['bidirectional_325[0][0]']      
                                                                                                  
 lstm_572 (LSTM)                (None, 5)            320         ['bidirectional_326[0][0]']      
                                                                                                  
 conv1d_163 (Conv1D)            (None, 25, 5)        155         ['conv1d_162[0][0]']             
                                                                                                  
 dense_324 (Dense)              (None, 128)          768         ['lstm_568[0][0]']               
                                                                                                  
 dense_325 (Dense)              (None, 128)          768         ['lstm_570[0][0]']               
                                                                                                  
 dense_326 (Dense)              (None, 128)          768         ['lstm_572[0][0]']               
                                                                                                  
 bidirectional_327 (Bidirection  (None, 128)         35840       ['conv1d_163[0][0]']             
 al)                                                                                              
                                                                                                  
 dropout_324 (Dropout)          (None, 128)          0           ['dense_324[0][0]']              
                                                                                                  
 dropout_325 (Dropout)          (None, 128)          0           ['dense_325[0][0]']              
                                                                                                  
 dropout_326 (Dropout)          (None, 128)          0           ['dense_326[0][0]']              
                                                                                                  
 dropout_327 (Dropout)          (None, 128)          0           ['bidirectional_327[0][0]']      
                                                                                                  
 concatenate_81 (Concatenate)   (None, 512)          0           ['dropout_324[0][0]',            
                                                                  'dropout_325[0][0]',            
                                                                  'dropout_326[0][0]',            
                                                                  'dropout_327[0][0]']            
                                                                                                  
 dense_327 (Dense)              (None, 1)            513         ['concatenate_81[0][0]']         
                                                                                                  
==================================================================================================
Total params: 43,467
Trainable params: 43,467
Non-trainable params: 0
__________________________________________________________________________________________________
…
 bidirectional_345 (Bidirection  (None, None, 10)    280         ['masking_345[0][0]']            
 al)                                                                                              
                                                                                                  
 bidirectional_346 (Bidirection  (None, None, 10)    280         ['masking_346[0][0]']            
 al)                                                                                              
                                                                                                  
 conv1d_172 (Conv1D)            (None, 25, 5)        3805        ['masking_347[0][0]']            
                                                                                                  
 lstm_603 (LSTM)                (None, 5)            320         ['bidirectional_344[0][0]']      
                                                                                                  
 lstm_605 (LSTM)                (None, 5)            320         ['bidirectional_345[0][0]']      
                                                                                                  
 lstm_607 (LSTM)                (None, 5)            320         ['bidirectional_346[0][0]']      
                                                                                                  
 conv1d_173 (Conv1D)            (None, 25, 5)        205         ['conv1d_172[0][0]']             
                                                                                                  
 dense_344 (Dense)              (None, 128)          768         ['lstm_603[0][0]']               
                                                                                                  
 dense_345 (Dense)              (None, 128)          768         ['lstm_605[0][0]']               
                                                                                                  
 dense_346 (Dense)              (None, 128)          768         ['lstm_607[0][0]']               
                                                                                                  
 bidirectional_347 (Bidirection  (None, 128)         35840       ['conv1d_173[0][0]']             
 al)                                                                                              
                                                                                                  
 dropout_344 (Dropout)          (None, 128)          0           ['dense_344[0][0]']              
                                                                                                  
 dropout_345 (Dropout)          (None, 128)          0           ['dense_345[0][0]']              
                                                                                                  
 dropout_346 (Dropout)          (None, 128)          0           ['dense_346[0][0]']              
                                                                                                  
 dropout_347 (Dropout)          (None, 128)          0           ['bidirectional_347[0][0]']      
                                                                                                  
 concatenate_86 (Concatenate)   (None, 512)          0           ['dropout_344[0][0]',            
                                                                  'dropout_345[0][0]',            
                                                                  'dropout_346[0][0]',            
                                                                  'dropout_347[0][0]']            
                                                                                                  
 dense_347 (Dense)              (None, 1)            513         ['concatenate_86[0][0]']         
                                                                                                  
==================================================================================================
Total params: 44,467
Trainable params: 44,467
Non-trainable params: 0
__________________________________________________________________________________________________
…
