…
 bidirectional_401 (Bidirection  (None, None, 10)    280         ['masking_401[0][0]']            
 al)                                                                                              
                                                                                                  
 bidirectional_402 (Bidirection  (None, None, 10)    280         ['masking_402[0][0]']            
 al)                                                                                              
                                                                                                  
 conv1d_200 (Conv1D)            (None, 25, 5)        1905        ['masking_403[0][0]']            
                                                                                                  
 lstm_701 (LSTM)                (None, 5)            320         ['bidirectional_400[0][0]']      
                                                                                                  
 lstm_703 (LSTM)                (None, 5)            320         ['bidirectional_401[0][0]']      
                                                                                                  
 lstm_705 (LSTM)                (None, 5)            320         ['bidirectional_402[0][0]']      
                                                                                                  
 conv1d_201 (Conv1D)            (None, 25, 5)        105         ['conv1d_200[0][0]']             
                                                                                                  
 dense_400 (Dense)              (None, 64)           384         ['lstm_701[0][0]']               
                                                                                                  
 dense_401 (Dense)              (None, 64)           384         ['lstm_703[0][0]']               
                                                                                                  
 dense_402 (Dense)              (None, 64)           384         ['lstm_705[0][0]']               
                                                                                                  
 bidirectional_403 (Bidirection  (None, 64)          9728        ['conv1d_201[0][0]']             
 al)                                                                                              
                                                                                                  
 dropout_400 (Dropout)          (None, 64)           0           ['dense_400[0][0]']              
                                                                                                  
 dropout_401 (Dropout)          (None, 64)           0           ['dense_401[0][0]']              
                                                                                                  
 dropout_402 (Dropout)          (None, 64)           0           ['dense_402[0][0]']              
                                                                                                  
 dropout_403 (Dropout)          (None, 64)           0           ['bidirectional_403[0][0]']      
                                                                                                  
 concatenate_100 (Concatenate)  (None, 256)          0           ['dropout_400[0][0]',            
                                                                  'dropout_401[0][0]',            
                                                                  'dropout_402[0][0]',            
                                                                  'dropout_403[0][0]']            
                                                                                                  
 dense_403 (Dense)              (None, 1)            257         ['concatenate_100[0][0]']        
                                                                                                  
==================================================================================================
Total params: 14,947
Trainable params: 14,947
Non-trainable params: 0
__________________________________________________________________________________________________
…
 bidirectional_421 (Bidirection  (None, None, 10)    280         ['masking_421[0][0]']            
 al)                                                                                              
                                                                                                  
 bidirectional_422 (Bidirection  (None, None, 10)    280         ['masking_422[0][0]']            
 al)                                                                                              
                                                                                                  
 conv1d_210 (Conv1D)            (None, 25, 5)        2855        ['masking_423[0][0]']            
                                                                                                  
 lstm_736 (LSTM)                (None, 5)            320         ['bidirectional_420[0][0]']      
                                                                                                  
 lstm_738 (LSTM)                (None, 5)            320         ['bidirectional_421[0][0]']      
                                                                                                  
 lstm_740 (LSTM)                (None, 5)            320         ['bidirectional_422[0][0]']      
                                                                                                  
 conv1d_211 (Conv1D)            (None, 25, 5)        155         ['conv1d_210[0][0]']             
                                                                                                  
 dense_420 (Dense)              (None, 64)           384         ['lstm_736[0][0]']               
                                                                                                  
 dense_421 (Dense)              (None, 64)           384         ['lstm_738[0][0]']               
                                                                                                  
 dense_422 (Dense)              (None, 64)           384         ['lstm_740[0][0]']               
                                                                                                  
 bidirectional_423 (Bidirection  (None, 64)          9728        ['conv1d_211[0][0]']             
 al)                                                                                              
                                                                                                  
 dropout_420 (Dropout)          (None, 64)           0           ['dense_420[0][0]']              
                                                                                                  
 dropout_421 (Dropout)          (None, 64)           0           ['dense_421[0][0]']              
                                                                                                  
 dropout_422 (Dropout)          (None, 64)           0           ['dense_422[0][0]']              
                                                                                                  
 dropout_423 (Dropout)          (None, 64)           0           ['bidirectional_423[0][0]']      
                                                                                                  
 concatenate_105 (Concatenate)  (None, 256)          0           ['dropout_420[0][0]',            
                                                                  'dropout_421[0][0]',            
                                                                  'dropout_422[0][0]',            
                                                                  'dropout_423[0][0]']            
                                                                                                  
 dense_423 (Dense)              (None, 1)            257         ['concatenate_105[0][0]']        
                                                                                                  
==================================================================================================
Total params: 15,947
Trainable params: 15,947
Non-trainable params: 0
__________________________________________________________________________________________________
…
 bidirectional_441 (Bidirection  (None, None, 10)    280         ['masking_441[0][0]']            
 al)                                                                                              
                                                                                                  
 bidirectional_442 (Bidirection  (None, None, 10)    280         ['masking_442[0][0]']            
 al)                                                                                              
                                                                                                  
 conv1d_220 (Conv1D)            (None, 25, 5)        3805        ['masking_443[0][0]']            
                                                                                                  
 lstm_771 (LSTM)                (None, 5)            320         ['bidirectional_440[0][0]']      
                                                                                                  
 lstm_773 (LSTM)                (None, 5)            320         ['bidirectional_441[0][0]']      
                                                                                                  
 lstm_775 (LSTM)                (None, 5)            320         ['bidirectional_442[0][0]']      
                                                                                                  
 conv1d_221 (Conv1D)            (None, 25, 5)        205         ['conv1d_220[0][0]']             
                                                                                                  
 dense_440 (Dense)              (None, 64)           384         ['lstm_771[0][0]']               
                                                                                                  
 dense_441 (Dense)              (None, 64)           384         ['lstm_773[0][0]']               
                                                                                                  
 dense_442 (Dense)              (None, 64)           384         ['lstm_775[0][0]']               
                                                                                                  
 bidirectional_443 (Bidirection  (None, 64)          9728        ['conv1d_221[0][0]']             
 al)                                                                                              
                                                                                                  
 dropout_440 (Dropout)          (None, 64)           0           ['dense_440[0][0]']              
                                                                                                  
 dropout_441 (Dropout)          (None, 64)           0           ['dense_441[0][0]']              
                                                                                                  
 dropout_442 (Dropout)          (None, 64)           0           ['dense_442[0][0]']              
                                                                                                  
 dropout_443 (Dropout)          (None, 64)           0           ['bidirectional_443[0][0]']      
                                                                                                  
 concatenate_110 (Concatenate)  (None, 256)          0           ['dropout_440[0][0]',            
                                                                  'dropout_441[0][0]',            
                                                                  'dropout_442[0][0]',            
                                                                  'dropout_443[0][0]']            
                                                                                                  
 dense_443 (Dense)              (None, 1)            257         ['concatenate_110[0][0]']        
                                                                                                  
==================================================================================================
Total params: 16,947
Trainable params: 16,947
Non-trainable params: 0
__________________________________________________________________________________________________
…
 bidirectional_461 (Bidirection  (None, None, 10)    280         ['masking_461[0][0]']            
 al)                                                                                              
                                                                                                  
 bidirectional_462 (Bidirection  (None, None, 10)    280         ['masking_462[0][0]']            
 al)                                                                                              
                                                                                                  
 conv1d_230 (Conv1D)            (None, 25, 5)        1905        ['masking_463[0][0]']            
                                                                                                  
 lstm_806 (LSTM)                (None, 5)            320         ['bidirectional_460[0][0]']      
                                                                                                  
 lstm_808 (LSTM)                (None, 5)            320         ['bidirectional_461[0][0]']      
                                                                                                  
 lstm_810 (LSTM)                (None, 5)            320         ['bidirectional_462[0][0]']      
                                                                                                  
 conv1d_231 (Conv1D)            (None, 25, 5)        105         ['conv1d_230[0][0]']             
                                                                                                  
 dense_460 (Dense)              (None, 96)           576         ['lstm_806[0][0]']               
                                                                                                  
 dense_461 (Dense)              (None, 96)           576         ['lstm_808[0][0]']               
                                                                                                  
 dense_462 (Dense)              (None, 96)           576         ['lstm_810[0][0]']               
                                                                                                  
 bidirectional_463 (Bidirection  (None, 96)          20736       ['conv1d_231[0][0]']             
 al)                                                                                              
                                                                                                  
 dropout_460 (Dropout)          (None, 96)           0           ['dense_460[0][0]']              
                                                                                                  
 dropout_461 (Dropout)          (None, 96)           0           ['dense_461[0][0]']              
                                                                                                  
 dropout_462 (Dropout)          (None, 96)           0           ['dense_462[0][0]']              
                                                                                                  
 dropout_463 (Dropout)          (None, 96)           0           ['bidirectional_463[0][0]']      
                                                                                                  
 concatenate_115 (Concatenate)  (None, 384)          0           ['dropout_460[0][0]',            
                                                                  'dropout_461[0][0]',            
                                                                  'dropout_462[0][0]',            
                                                                  'dropout_463[0][0]']            
                                                                                                  
 dense_463 (Dense)              (None, 1)            385         ['concatenate_115[0][0]']        
                                                                                                  
==================================================================================================
Total params: 26,659
Trainable params: 26,659
Non-trainable params: 0
__________________________________________________________________________________________________
…
 bidirectional_481 (Bidirection  (None, None, 10)    280         ['masking_481[0][0]']            
 al)                                                                                              
                                                                                                  
 bidirectional_482 (Bidirection  (None, None, 10)    280         ['masking_482[0][0]']            
 al)                                                                                              
                                                                                                  
 conv1d_240 (Conv1D)            (None, 25, 5)        2855        ['masking_483[0][0]']            
                                                                                                  
 lstm_841 (LSTM)                (None, 5)            320         ['bidirectional_480[0][0]']      
                                                                                                  
 lstm_843 (LSTM)                (None, 5)            320         ['bidirectional_481[0][0]']      
                                                                                                  
 lstm_845 (LSTM)                (None, 5)            320         ['bidirectional_482[0][0]']      
                                                                                                  
 conv1d_241 (Conv1D)            (None, 25, 5)        155         ['conv1d_240[0][0]']             
                                                                                                  
 dense_480 (Dense)              (None, 96)           576         ['lstm_841[0][0]']               
                                                                                                  
 dense_481 (Dense)              (None, 96)           576         ['lstm_843[0][0]']               
                                                                                                  
 dense_482 (Dense)              (None, 96)           576         ['lstm_845[0][0]']               
                                                                                                  
 bidirectional_483 (Bidirection  (None, 96)          20736       ['conv1d_241[0][0]']             
 al)                                                                                              
                                                                                                  
 dropout_480 (Dropout)          (None, 96)           0           ['dense_480[0][0]']              
                                                                                                  
 dropout_481 (Dropout)          (None, 96)           0           ['dense_481[0][0]']              
                                                                                                  
 dropout_482 (Dropout)          (None, 96)           0           ['dense_482[0][0]']              
                                                                                                  
 dropout_483 (Dropout)          (None, 96)           0           ['bidirectional_483[0][0]']      
                                                                                                  
 concatenate_120 (Concatenate)  (None, 384)          0           ['dropout_480[0][0]',            
                                                                  'dropout_481[0][0]',            
                                                                  'dropout_482[0][0]',            
                                                                  'dropout_483[0][0]']            
                                                                                                  
 dense_483 (Dense)              (None, 1)            385         ['concatenate_120[0][0]']        
                                                                                                  
==================================================================================================
Total params: 27,659
Trainable params: 27,659
Non-trainable params: 0
__________________________________________________________________________________________________
…
 bidirectional_501 (Bidirection  (None, None, 10)    280         ['masking_501[0][0]']            
 al)                                                                                              
                                                                                                  
 bidirectional_502 (Bidirection  (None, None, 10)    280         ['masking_502[0][0]']            
 al)                                                                                              
                                                                                                  
 conv1d_250 (Conv1D)            (None, 25, 5)        3805        ['masking_503[0][0]']            
                                                                                                  
 lstm_876 (LSTM)                (None, 5)            320         ['bidirectional_500[0][0]']      
                                                                                                  
 lstm_878 (LSTM)                (None, 5)            320         ['bidirectional_501[0][0]']      
                                                                                                  
 lstm_880 (LSTM)                (None, 5)            320         ['bidirectional_502[0][0]']      
                                                                                                  
 conv1d_251 (Conv1D)            (None, 25, 5)        205         ['conv1d_250[0][0]']             
                                                                                                  
 dense_500 (Dense)              (None, 96)           576         ['lstm_876[0][0]']               
                                                                                                  
 dense_501 (Dense)              (None, 96)           576         ['lstm_878[0][0]']               
                                                                                                  
 dense_502 (Dense)              (None, 96)           576         ['lstm_880[0][0]']               
                                                                                                  
 bidirectional_503 (Bidirection  (None, 96)          20736       ['conv1d_251[0][0]']             
 al)                                                                                              
                                                                                                  
 dropout_500 (Dropout)          (None, 96)           0           ['dense_500[0][0]']              
                                                                                                  
 dropout_501 (Dropout)          (None, 96)           0           ['dense_501[0][0]']              
                                                                                                  
 dropout_502 (Dropout)          (None, 96)           0           ['dense_502[0][0]']              
                                                                                                  
 dropout_503 (Dropout)          (None, 96)           0           ['bidirectional_503[0][0]']      
                                                                                                  
 concatenate_125 (Concatenate)  (None, 384)          0           ['dropout_500[0][0]',            
                                                                  'dropout_501[0][0]',            
                                                                  'dropout_502[0][0]',            
                                                                  'dropout_503[0][0]']            
                                                                                                  
 dense_503 (Dense)              (None, 1)            385         ['concatenate_125[0][0]']        
                                                                                                  
==================================================================================================
Total params: 28,659
Trainable params: 28,659
Non-trainable params: 0
__________________________________________________________________________________________________
…
 bidirectional_521 (Bidirection  (None, None, 10)    280         ['masking_521[0][0]']            
 al)                                                                                              
                                                                                                  
 bidirectional_522 (Bidirection  (None, None, 10)    280         ['masking_522[0][0]']            
 al)                                                                                              
                                                                                                  
 conv1d_260 (Conv1D)            (None, 25, 5)        1905        ['masking_523[0][0]']            
                                                                                                  
 lstm_911 (LSTM)                (None, 5)            320         ['bidirectional_520[0][0]']      
                                                                                                  
 lstm_913 (LSTM)                (None, 5)            320         ['bidirectional_521[0][0]']      
                                                                                                  
 lstm_915 (LSTM)                (None, 5)            320         ['bidirectional_522[0][0]']      
                                                                                                  
 conv1d_261 (Conv1D)            (None, 25, 5)        105         ['conv1d_260[0][0]']             
                                                                                                  
 dense_520 (Dense)              (None, 128)          768         ['lstm_911[0][0]']               
                                                                                                  
 dense_521 (Dense)              (None, 128)          768         ['lstm_913[0][0]']               
                                                                                                  
 dense_522 (Dense)              (None, 128)          768         ['lstm_915[0][0]']               
                                                                                                  
 bidirectional_523 (Bidirection  (None, 128)         35840       ['conv1d_261[0][0]']             
 al)                                                                                              
                                                                                                  
 dropout_520 (Dropout)          (None, 128)          0           ['dense_520[0][0]']              
                                                                                                  
 dropout_521 (Dropout)          (None, 128)          0           ['dense_521[0][0]']              
                                                                                                  
 dropout_522 (Dropout)          (None, 128)          0           ['dense_522[0][0]']              
                                                                                                  
 dropout_523 (Dropout)          (None, 128)          0           ['bidirectional_523[0][0]']      
                                                                                                  
 concatenate_130 (Concatenate)  (None, 512)          0           ['dropout_520[0][0]',            
                                                                  'dropout_521[0][0]',            
                                                                  'dropout_522[0][0]',            
                                                                  'dropout_523[0][0]']            
                                                                                                  
 dense_523 (Dense)              (None, 1)            513         ['concatenate_130[0][0]']        
                                                                                                  
==================================================================================================
Total params: 42,467
Trainable params: 42,467
Non-trainable params: 0
__________________________________________________________________________________________________
…
 bidirectional_541 (Bidirection  (None, None, 10)    280         ['masking_541[0][0]']            
 al)                                                                                              
                                                                                                  
 bidirectional_542 (Bidirection  (None, None, 10)    280         ['masking_542[0][0]']            
 al)                                                                                              
                                                                                                  
 conv1d_270 (Conv1D)            (None, 25, 5)        2855        ['masking_543[0][0]']            
                                                                                                  
 lstm_946 (LSTM)                (None, 5)            320         ['bidirectional_540[0][0]']      
                                                                                                  
 lstm_948 (LSTM)                (None, 5)            320         ['bidirectional_541[0][0]']      
                                                                                                  
 lstm_950 (LSTM)                (None, 5)            320         ['bidirectional_542[0][0]']      
                                                                                                  
 conv1d_271 (Conv1D)            (None, 25, 5)        155         ['conv1d_270[0][0]']             
                                                                                                  
 dense_540 (Dense)              (None, 128)          768         ['lstm_946[0][0]']               
                                                                                                  
 dense_541 (Dense)              (None, 128)          768         ['lstm_948[0][0]']               
                                                                                                  
 dense_542 (Dense)              (None, 128)          768         ['lstm_950[0][0]']               
                                                                                                  
 bidirectional_543 (Bidirection  (None, 128)         35840       ['conv1d_271[0][0]']             
 al)                                                                                              
                                                                                                  
 dropout_540 (Dropout)          (None, 128)          0           ['dense_540[0][0]']              
                                                                                                  
 dropout_541 (Dropout)          (None, 128)          0           ['dense_541[0][0]']              
                                                                                                  
 dropout_542 (Dropout)          (None, 128)          0           ['dense_542[0][0]']              
                                                                                                  
 dropout_543 (Dropout)          (None, 128)          0           ['bidirectional_543[0][0]']      
                                                                                                  
 concatenate_135 (Concatenate)  (None, 512)          0           ['dropout_540[0][0]',            
                                                                  'dropout_541[0][0]',            
                                                                  'dropout_542[0][0]',            
                                                                  'dropout_543[0][0]']            
                                                                                                  
 dense_543 (Dense)              (None, 1)            513         ['concatenate_135[0][0]']        
                                                                                                  
==================================================================================================
Total params: 43,467
Trainable params: 43,467
Non-trainable params: 0
__________________________________________________________________________________________________
…
 bidirectional_561 (Bidirection  (None, None, 10)    280         ['masking_561[0][0]']            
 al)                                                                                              
                                                                                                  
 bidirectional_562 (Bidirection  (None, None, 10)    280         ['masking_562[0][0]']            
 al)                                                                                              
                                                                                                  
 conv1d_280 (Conv1D)            (None, 25, 5)        3805        ['masking_563[0][0]']            
                                                                                                  
 lstm_981 (LSTM)                (None, 5)            320         ['bidirectional_560[0][0]']      
                                                                                                  
 lstm_983 (LSTM)                (None, 5)            320         ['bidirectional_561[0][0]']      
                                                                                                  
 lstm_985 (LSTM)                (None, 5)            320         ['bidirectional_562[0][0]']      
                                                                                                  
 conv1d_281 (Conv1D)            (None, 25, 5)        205         ['conv1d_280[0][0]']             
                                                                                                  
 dense_560 (Dense)              (None, 128)          768         ['lstm_981[0][0]']               
                                                                                                  
 dense_561 (Dense)              (None, 128)          768         ['lstm_983[0][0]']               
                                                                                                  
 dense_562 (Dense)              (None, 128)          768         ['lstm_985[0][0]']               
                                                                                                  
 bidirectional_563 (Bidirection  (None, 128)         35840       ['conv1d_281[0][0]']             
 al)                                                                                              
                                                                                                  
 dropout_560 (Dropout)          (None, 128)          0           ['dense_560[0][0]']              
                                                                                                  
 dropout_561 (Dropout)          (None, 128)          0           ['dense_561[0][0]']              
                                                                                                  
 dropout_562 (Dropout)          (None, 128)          0           ['dense_562[0][0]']              
                                                                                                  
 dropout_563 (Dropout)          (None, 128)          0           ['bidirectional_563[0][0]']      
                                                                                                  
 concatenate_140 (Concatenate)  (None, 512)          0           ['dropout_560[0][0]',            
                                                                  'dropout_561[0][0]',            
                                                                  'dropout_562[0][0]',            
                                                                  'dropout_563[0][0]']            
                                                                                                  
 dense_563 (Dense)              (None, 1)            513         ['concatenate_140[0][0]']        
                                                                                                  
==================================================================================================
Total params: 44,467
Trainable params: 44,467
Non-trainable params: 0
__________________________________________________________________________________________________
…
